[EE5184]Machine Learning/hw/hw1/models/model2.ckpt (torch, 58817 bytes, 11 tensors)

layers.0.weight f4 [128, 24]
00000000: b3e9 84bb 9334 443e 59f4 06bd a553 fb3d
00000010: 44f8 01be 26de 1ebe 05e7 d73d b0e1 f03c
00000020: 1561 1f3e 1187 203d 4ae9 673e fe45 f4bc
00000030: f8b0 84be 1ed9 09be 4ce4 053e c691 043e
00000040: c89f bcbd a278 d1bd 1ab4 3bbe 4dfc 143e
00000050: 954b e53e 4244 943e 2e17 d93d 4f55 7c3e
00000060: a764 57bb 8ba3 183e bc56 e03d 63ea 663d
00000070: 4270 e8ba 36c6 a33d 1e04 e43d b093 843d
00000080: 6eb3 5c3d 55ee 8abc 1da2 e33d c258 99bd
00000090: 7faf c6bd 7d92 3d3d fab7 54bc 5275 333d
000000a0: 0c7a 10be 7244 24be cd38 083d db24 36bb
000000b0: e651 a73e 58a6 8f3e 0343 713e cebb e93d
000000c0: 2180 eaba 7384 ea3b 4c11 ba3d c89e 3d3e
000000d0: 5e69 9dbd c137 8fbc 7928 a53d 62fd 42bd
000000e0: 659e d93d 1f0d b83d cfb2 963c fb36 46be
000000f0: 84a8 31be abfd f93d a5d0 a43c c324 37be
00000100: e52b 8bbe dd16 a0be 070a 2cbe 8844 9a3c
00000110: b075 7e3e fe85 6f3e f9b8 ce3d b2f6 ee3d
00000120: 5cc9 0700 8532 0280 60a1 0280 5838 00b9
00000130: 8ea3 e4ba 9deb 0738 fbdc 0880 6651 0180
00000140: 21a2 6ab7 7ecb 85ba ac3f d1b7 eb23 0400
00000150: dea3 0580 f7f9 3f38 7fa4 813a 1fc0 5538
00000160: 121b 0400 7db9 0800 0917 49b7 259c 0f3a
00000170: 73f2 bb37 841b 0b80 5051 0100 7bc4 b1b8
00000180: 8961 95bb e8a5 883e aca4 4a3d 2bf2 5e3e
00000190: e152 8e3c d12a 763e 271b e63d 6a3a 323e
000001a0: 66ec 523e a66e c33d bda4 5d3e 5cbf 1ebe
000001b0: 3be3 1abd a312 493e e0cc e6bd c45c 243e
000001c0: 777a 41be 143d d6bd 41d1 1a3e afff 97bc
000001d0: 6673 e83e 7ad7 603e 0510 453e f004 3c3e
000001e0: b809 5388 c8db 32bc 2842 15bc 21a5 873d
000001f0: ae92 46be 8864 0fbc 6d2d d6bc 5d16 843b
00000200: 946d a3bd f5fa 903d 7268 35bd 5d91 b0bc
00000210: e5a0 a63c 67d5 963c cbbc d83d 514d 023e
00000220: f614 8c3c 230a 05bc a267 25be fcf0 4dbb
00000230: 5d66 eebd 384e 17bc 01a6 07bc 4b97 c0bd
00000240: 387f 41bb 9f0f 113e 4dc7 d83d 1322 573d
00000250: 1d8d f3bb 159c 923d 9366 d63d 71ee 6c3d
00000260: 0ddf 393d cb07 b1bc e677 d43d 159a aabd
00000270: bbb2 cdbd 0355 1b3d c997 9dbc 3406 0c3d
00000280: c339 14be 45ec 27be 1d31 d93c b082 f6bb
00000290: 4772 a23e d8b1 8b3e 4507 673e 95b9 d83d
000002a0: 6504 46bb 6fd7 123e 0685 dd3d ed59 483d
000002b0: 4b54 f1bb d65c 933d 7b9a d63d 06b3 673d
000002c0: 8aaf 463d ecd0 b9bc 5263 d83d 2123 a5bd
000002d0: 7f80 cebd cec4 1d3d a10a 8abc b62b 1e3d
000002e0: 0fcb 12be ccb9 2cbe 7897 f33c c386 0cbc
000002f0: e4c2 a33e 0f4a 8c3e 66b9 673e 5731 e13d
00000300: 3ec3 20bb 7adc 593d ca9e db3d ca02 693e
00000310: 16ef 55be 3236 c33d 975a a43d 8a66 4cbd
00000320: ef85 613e 3c17 b6bd 37e5 153e e642 a6bc
00000330: b335 c5bd ba21 afbd ba42 273e bbf8 6f3e
00000340: 551e 4ebe 38e3 80be f1c8 273e c7db 8f3d
00000350: 4f7e a63e 0d3c 943e 9273 d83d 497e 04bd
00000360: f24a 0680 68e6 a137 1e9f 3e38 689d bcbc
00000370: 1b7a d73d fc7b 5a3d 9c09 15b8 dc26 cbb8
00000380: a2b9 19bd b8d1 94bd 85ab a53d 4872 0bb7
00000390: 07be cf38 2312 25bc 642e 93bc 2e2a 70bd
000003a0: 669d fd37 1393 1ab8 b47c 06be 7428 3fbd
000003b0: 5d7a 853c 0913 9bb8 ae3f eab6 b398 ea3d
000003c0: 857c 09bd ac3b c93c 216c 373e f495 31be
000003d0: e8b8 01be 5a70 5cbd e3ad 413e e902 1c3e
000003e0: ed76 ed3d 9660 1a3e bf99 20bd e1e6 61bc
000003f0: df85 93bd d7ea bc3d 97db acbc 3857 e03d
-0.0040561794 0.1916068 -0.03294787 0.12271813 -0.12692362 -0.1551443 0.1054211 0.029404491
0.15564378 0.03919131 0.22647586 -0.029818531 -0.25916266 -0.1346173 0.1307537 0.12946233
-0.09210163 -0.10228087 -0.18330422 0.1454937 0.44784227 0.28958327 0.10600124 0.24641918
-0.003286639 0.14906137 0.10954043 0.056375872 -0.0017733651 0.0799679 0.11133598 0.06473482
0.053882055 -0.016959349 0.11114905 -0.07487632 -0.09701442 0.04628228 -0.012983317 0.043813057
-0.14109057 -0.16041735 0.033257294 -0.0027792964 0.3267967 0.28056598 0.23560719 0.11412774
-0.0017890969 0.0071569025 0.0908533 0.18517601 -0.07686113 -0.01748264 0.0806436 -0.047604926
0.106259145 0.08986878 0.01839581 -0.19356911 -0.1734944 0.122065865 0.02011902 -0.17885117
-0.27181926 -0.31267443 -0.168007 0.018831506 0.24849582 0.23390958 0.100938745 0.11668147
7.15083e-40 -2.01794e-40 -2.41561e-40 -0.00012228021 -0.0017443763 3.240594e-05 -8.13957e-40 -1.21036e-40
-1.39852355e-05 -0.001020774 -2.4944391e-05 3.80227e-40 -5.17962e-40 4.5770747e-05 0.0009890943 5.0962084e-05
3.77053e-40 8.01225e-40 -1.1985897e-05 0.00054782844 2.2405036e-05 -1.020061e-39 1.21005e-40 -8.476615e-05
-0.0045587462 0.26689076 0.04947345 0.21772067 0.017373504 0.2403977 0.11235648 0.17405096
0.20597991 0.09542589 0.21644874 -0.15502685 -0.03781436 0.19636016 -0.112695456 0.16051012
-0.18894373 -0.104608685 0.15118887 -0.018554537 0.45400542 0.21957198 0.19244392 0.18361259
-6.3506927e-34 -0.010916658 -0.009110011 0.06623293 -0.19391891 -0.008751996 -0.026144708 0.004030986
-0.07979885 0.07079116 -0.04428906 -0.02155369 0.020340392 0.018412305 0.105828844 0.12724806
0.017099839 -0.008120093 -0.16152814 -0.0031424155 -0.11640618 -0.009234957 -0.0082793245 -0.09403857
-0.0029525291 0.14166115 0.105848886 0.05252273 -0.0074325935 0.071586765 0.10468783 0.057844583
0.045378733 -0.021610161 0.10374431 -0.0833017 -0.10043856 0.03792287 -0.019237416 0.034185603
-0.1447516 -0.16398723 0.026512677 -0.0075229034 0.31727812 0.27284122 0.22561367 0.10582272
-0.0030215022 0.14339994 0.10816388 0.048913885 -0.007364785 0.071954414 0.104786836 0.056567214
0.04850725 -0.02268263 0.10565819 -0.08063341 -0.100831024 0.038517766 -0.016850771 0.038615905
-0.14335273 -0.16867751 0.029735312 -0.008577052 0.31984627 0.27400252 0.22629318 0.10995739
-0.0024530436 0.05318878 0.10723646 0.2275497 -0.20891985 0.09531821 0.08025091 -0.049902476
0.22023748 -0.0889115 0.1463822 -0.020295572 -0.09629383 -0.08551355 0.16334048 0.23434727
-0.20128758 -0.25173354 0.16385247 0.07024341 0.3251824 0.28952065 0.10568918 -0.032346997
-5.77898e-40 1.9299987e-05 4.544772e-05 -0.023024276 0.10521337 0.053340897 -3.5533318e-05 -9.6870324e-05
-0.03753055 -0.07266563 0.080893554 -8.311654e-06 9.9059245e-05 -0.010075125 -0.017966457 -0.058633976
3.0233245e-05 -3.6853435e-05 -0.13133508 -0.04666944 0.016293699 -7.3945215e-05 -6.9811567e-06 0.11454906
-0.033566017 0.024564587 0.17912342 -0.17342359 -0.12668192 -0.053818084 0.18913989 0.15235485
0.11594949 0.15075907 -0.039209124 -0.013787956 -0.07203268 0.0922448 -0.021100802 0.10954136

layers.0.bias f4 [128]
00000000: 6bb4 99be 6f68 80be 4837 22be 9294 0300
00000010: eef0 06be cd09 53ba 818c 80be 13ea 80be
00000020: 24f0 69be d6f2 1234 f853 aabe 73a2 adbe
00000030: 0c15 84be d8bd 88be 7228 60be ed55 2fba
00000040: 8ca0 80be c6e0 632f 0bf0 7ebe dc12 223f
00000050: c0c7 81be 044a 70be ff4a 7fbe 3365 80be
00000060: ed4f cc3e f5cf 8cbe ec63 0180 d875 97bd
00000070: b2fb efbd 7176 593e b983 17b6 72b7 4cbe
00000080: 0f49 89bd c899 7cbe cdd4 99be 6398 7fbe
00000090: 0ace 7fbe a17c 7fbe 68af 1806 3ab9 863d
000000a0: 6730 67b7 5b26 7dbe 6216 66be 85c6 a91e
000000b0: 967b 7fbe 72a7 82be a36c 7fbe 1605 d9be
000000c0: 2c40 373e 1037 d8be 58ea a2be 3204 a1be
000000d0: e30d bebd 61cb 81be 655a 7fbe 9743 97bc
000000e0: 010b a2be e417 dabe 2322 efbe ec20 82be
000000f0: 4e4c 163e 69fe bdbe fb3e 9bbe 3e7b 20be
00000100: 397f c32f c0e8 15b8 bc34 16be 6eae f23b
00000110: 92c5 80be c29f 7ebe 19ff 233d 4bfc 89be
00000120: a7ab 0180 4d91 d2be 39ef cdbe a18b 82be
00000130: 8ded 7ebe 6131 6e39 2f1f 81be 5372 b8be
00000140: 6d53 81be 392e 82be 2c1e 7fbe 2ee7 81be
00000150: 11c7 39ac 175f 0600 b491 85b1 ec8e 97be
00000160: 34b6 b1be eb03 80be 46d4 56be f9d4 44b4
00000170: 0511 92be 86c7 0080 78d8 813e b65f 8bbe
00000180: 0d0c 82be 0006 55bb c6c0 7ebe 7bfc 72bd
00000190: ab76 bcbe 0b9f 9fbe fbff 81be 186c 292f
000001a0: 5cac dcbc fd49 85bd f2fa 8fbe d70f 8bbe
000001b0: 70eb c6be f475 c9be 8c03 81be b26b 393f
000001c0: 4c99 81be 9b11 dbbe 6b4a 05bc f4e9 81be
000001d0: 9061 873d 6615 80be 5ac0 93be 6af2 31be
000001e0: 9af9 bcbe 00da 80be d60b bcbd 3a7b f53e
000001f0: 0846 4dbd de6c 7dbe 534f 86be 8b70 81be
-0.3002046 -0.25079677 -0.158414 3.28803e-40 -0.13177845 -0.00080504717 -0.25107196 -0.25178584
-0.22845513 1.3685653e-07 -0.33267188 -0.33913 -0.25797307 -0.2670734 -0.21890429 -0.0006688524
-0.25122488 2.0725385e-10 -0.24896257 0.6331003 -0.2534771 -0.23465735 -0.24930952 -0.2507721
0.3990473 -0.2750241 -1.27681e-40 -0.07395524 -0.11717929 0.21236588 -2.2577426e-06 -0.19991854
-0.06703388 -0.24668038 -0.30045167 -0.24960475 -0.24980941 -0.24949886 2.871689e-35 0.06578298
-1.37799425e-05 -0.24721663 -0.22469476 1.7975677e-20 -0.24949488 -0.25518376 -0.24943785 -0.42386693
0.17895573 -0.4222951 -0.31819415 -0.31448513 -0.092799924 -0.25350478 -0.24936827 -0.018464847
-0.3164902 -0.42596352 -0.46705732 -0.25415742 0.14677545 -0.37108162 -0.30321488 -0.15672013
3.556069e-10 -3.5741134e-05 -0.14668554 0.0074060475 -0.25150734 -0.2486563 0.040038202 -0.26950297
-1.53413e-40 -0.4112648 -0.40221575 -0.25497153 -0.24895306 0.00022715844 -0.25219104 -0.36024722
-0.2525896 -0.2542589 -0.24913853 -0.2537169 -2.6400585e-12 5.85125e-40 -3.887374e-09 -0.29601228
-0.34709322 -0.2500299 -0.20979413 -1.8331401e-07 -0.2852861 -7.1576e-41 0.25360465 -0.2722146
-0.2539982 -0.0032504797 -0.24878225 -0.059322815 -0.36809286 -0.31176028 -0.2539061 1.5408863e-10
-0.026937656 -0.06508253 -0.28121144 -0.27160522 -0.388515 -0.39347804 -0.2519802 0.72429955
-0.2531227 -0.4278687 -0.008135418 -0.25373805 0.066104054 -0.25016326 -0.2885769 -0.1737763
-0.3690918 -0.2516632 -0.09181945 0.47945577 -0.050115615 -0.24748561 -0.26232395 -0.25281176

layers.2.weight f4 [64, 128]
00000000: 597d 0c3d 9e70 82bd 0155 04bd be06 0180
00000010: ddae abbd de5a c7bb 58e5 71bd 6677 6fbd
00000020: 7520 06bd d944 acb9 b7e9 56bd f450 13bd
00000030: 93a2 3ebd d75f 7cbd 8755 92bd 9b5c 6c3c
00000040: 8bae 72bd 4da3 6e30 ceab 75bd cef0 97bd
00000050: 3fb9 6cbd e2a9 75bd 3b33 68bd faa4 6bbd
00000060: 125c bcbc 4412 32bd 30b3 0200 c4e0 033b
00000070: c8a0 cbbc 4a10 d9bc 608d 25a2 7464 88bd
00000080: 13ce e0b9 ed23 f33c 8a0b 383b 6789 7bbd
00000090: fb2c 73bd 83f5 65bd 590d bb19 8fed a63c
000000a0: b7e2 d7b7 4546 70bd 8f54 e1bb c4b4 fc31
000000b0: 88c2 86bd 5fa5 6dbd 7770 6bbd 70e8 0bbc
000000c0: c02d 52bd f4ae 43bd 8337 b63b ba55 a63a
000000d0: 8ceb dd3b 58a1 6cbd 6fd6 6bbd 0bf1 75b9
000000e0: a69c 45bd f8f4 34bd 5e76 2bbd 6d19 78bd
000000f0: 7f4e f3bc d8c8 a1bc 68f7 b9bc 867a 54bd
00000100: 713a 2838 e37b 0100 19c7 47bd a96c bdbc
00000110: 7fde 60bd ca65 73bd 61d4 20bd 89e3 31bd
00000120: 6811 0c00 2f4a 3bbd 3d31 2cbd 67d1 ddbc
00000130: 6101 6abd eb90 8a38 2003 5cbd a549 11bd
00000140: f886 75bd 5936 6ebd 595a 59bd 2dea 6fbd
00000150: 27fe 72b8 270b 0400 b1fa 3d2f 37ef 0db9
00000160: a459 80bd 4ea6 6ebd 10d7 803d 0104 353c
00000170: 89f9 5dbb 1ee9 3200 82d6 d6bc ae44 31bd
00000180: 0470 6ebd fce0 09bb f2dd 6bbd fcb3 353c
00000190: c780 26bc 6c20 57bd 30f0 6bbd 2888 65b3
000001a0: d1a4 bdbc 732f 7bbc bd17 26bd b8eb a3ba
000001b0: 6ccd 1abd 890b ce3c 8c10 78bd 9df0 d3bc
000001c0: 7359 59bd 705a dcbc b9fb 6ebc ba2f 73bd
000001d0: ed73 e33c 66b4 66bd 7dc8 77bc a4bd 2abd
000001e0: 5a39 60bd dbc3 6bbd 2802 09bd fd79 91bd
000001f0: 463b 143c ec85 81bd 727e 16bd dd71 75bd
00000200: 4691 ac3a b758 0100 b25d 8bbd 81a7 1b16
00000210: 3610 33bd 8d4f 3abc 11f2 0900 6837 7900
00000220: b934 673c 5bab 773c cc23 873b 31f4 83bc
00000230: 0299 0380 3c35 a0b9 fffe b6bc 78b0 693c
00000240: 3050 0900 18ef 3cb9 c52c 0400 336a 0380
00000250: f894 1b81 e954 823b 939b 0000 0c7e 0900
00000260: 23d3 aa3c 835d 9cbc 626b 0180 5c93 3fbd
00000270: a559 64bc d0d7 6081 6db4 0280 9bbf d128
00000280: f2c3 8bbb 987f 22bd 03b5 393d e90a 3d00
00000290: 18ff e100 5541 0980 dc7f 3832 66a9 393d
000002a0: e41f 1db8 4933 5a00 9637 5d3b 0ddb c61b
000002b0: ee41 0880 deb2 9900 4c7f 2a00 5c6f 0fbd
000002c0: edab 679e 7371 0900 1774 a3bc a1f3 19bd
000002d0: 7d2b 46bd 5670 0700 ac64 4a00 f9e0 0dba
000002e0: 2ac1 b3bc a4b0 0480 453a 0180 6730 0c00
000002f0: a498 31bc a506 19bd e3b0 5980 fc1a 1aba
00000300: abdc 1c1f 9df1 0900 fc51 cdbb d697 a53c
00000310: 1f4b 0600 aa6d a121 a24e 3a3b 24ec 6200
00000320: 2971 0580 0839 16bc e503 1b3b 9126 69bd
00000330: ca69 3881 fc0c 07b7 7949 0600 c948 f1bc
00000340: 4d04 0d80 e80f b200 9f39 0080 b8e8 3080
00000350: ab2d bb3c b79e 0a80 d679 823a ed9c 393d
00000360: c6c0 2b38 8b6f 0780 ccff bcba 7fc6 65bd
00000370: 88d3 aebd 5148 0100 fbd9 21a6 9426 9880
00000380: 8c2d 0c00 ccc3 03b3 7ceb 9800 2969 393d
00000390: b710 883c d575 01bc 582d 9200 a86a 8aba
000003a0: 8e34 c0b8 a2a3 c23c 8ce5 2c80 b01a cfbc
000003b0: 705e 4bbd a669 e33c 15dd 0080 8c1e d700
000003c0: 0cec 0200 0b1b 85bd a2ee 3b3d f3fe 0480
000003d0: 2091 c0bc 9e85 0981 0fb5 8b3b 8580 e2bc
000003e0: e94d 5d3b 5551 4f81 08c2 46bd e9c2 0000
000003f0: 26eb 0e3d 51e6 0a80 b813 9338 d16b 0680
0.03429923 -0.06369136 -0.03230763 -9.4254e-41 -0.08382962 -0.0060838303 -0.05905661 -0.058463477
-0.032745797 -0.00032857692 -0.05246898 -0.035965875 -0.04654176 -0.061614837 -0.07145219 0.014426376
-0.05924849 8.681596e-10 -0.0599783 -0.07418977 -0.057793852 -0.059976466 -0.056689482 -0.05753038
-0.022993121 -0.04347445 2.47951e-40 0.0020122984 -0.02485694 -0.026497025 -2.2436513e-18 -0.06659785
-0.00042878147 0.029680217 0.002808305 -0.061410334 -0.05936907 -0.05614234 1.9340738e-23 0.020376949
-2.573557e-05 -0.058660764 -0.0068765352 7.354716e-09 -0.06580073 -0.05801904 -0.0574803 -0.008539304
-0.05131316 -0.04777427 0.0055608167 0.0012690343 0.006772464 -0.057771057 -0.057577547 -0.00023454816
-0.048245095 -0.044178933 -0.04186093 -0.060571123 -0.029700516 -0.01974909 -0.02270098 -0.05187466
4.010875e-05 1.36278e-40 -0.04877386 -0.023123102 -0.05489969 -0.059423245 -0.03926504 -0.043429885
1.10827e-39 -0.045725044 -0.042039145 -0.02707739 -0.05713022 6.607346e-05 -0.053713918 -0.035470624
-0.05994317 -0.0581573 -0.053064678 -0.058572937 -5.7933994e-05 3.71343e-40 1.7278513e-10 -0.00013535922
-0.062670976 -0.05826407 0.0629102 0.011048318 -0.0033870658 4.675401e-39 -0.026225332 -0.04327839
-0.058212295 -0.0021038642 -0.05758471 0.011090275 -0.010162539 -0.052521154 -0.057602108 -5.344205e-08
-0.02314988 -0.015331137 -0.040549982 -0.0012506163 -0.03779356 0.025151985 -0.060562655 -0.02587157
-0.05306382 -0.026898593 -0.014586383 -0.059371687 0.027765239 -0.056324385 -0.015123484 -0.04168476
-0.054742195 -0.05755983 -0.033449322 -0.071033455 0.009047335 -0.06324372 -0.03674168 -0.05992304
0.0013165853 1.2366e-40 -0.0680498 1.2573655e-25 -0.04371663 -0.011371505 9.13357e-40 1.1131971e-38
0.014111691 0.015116538 0.0041241404 -0.01610765 -3.30395e-40 -0.0003055724 -0.022338388 0.014263265
8.55285e-40 -0.00018018147 3.83402e-40 -3.13604e-40 -2.8575884e-38 0.0039774072 5.581e-41 8.71737e-40
0.020852631 -0.019087559 -1.30357e-40 -0.046771392 -0.013937389 -4.129714e-38 -2.48396e-40 2.3286757e-14
-0.004265302 -0.039672464 0.04533864 5.605879e-39 2.0754497e-38 -8.49956e-40 1.07392815e-08 0.045327567
-3.7461417e-05 8.283592e-39 0.0033755056 3.289791e-22 -7.58335e-40 1.4114996e-38 3.902756e-39 -0.03501831
-1.22645916e-20 8.67217e-40 -0.019952817 -0.03758586 -0.048381317 6.83147e-40 6.831941e-39 -0.00054122467
-0.021942694 -4.30709e-40 -1.12739e-40 1.11939e-39 -0.010839615 -0.037359852 -8.236814e-39 -0.0005878655
3.3216817e-20 9.13194e-40 -0.006265877 0.020214003 5.77961e-40 1.0938812e-18 0.0028428216 9.08459e-39
-4.99772e-40 -0.009168871 0.0023653444 -0.056921545 -3.3871363e-38 -8.04965e-06 5.7737e-40 -0.029453652
-1.195404e-39 1.6352424e-38 -2.067e-41 -4.491588e-39 0.022848925 -9.75291e-40 0.0009954523 0.04531567
4.094911e-05 -6.82863e-40 -0.0014419495 -0.056097504 -0.0853644 1.17778e-40 -5.6153515e-16 -1.3972835e-38
1.118365e-39 -3.067889e-08 1.4043471e-38 0.045266304 0.016609533 -0.0079016285 1.3424249e-38 -0.001056035
-9.1650625e-05 0.023759667 -4.123108e-39 -0.02528128 -0.04965061 0.027760338 -7.9309e-41 1.975559e-38
2.68349e-40 -0.06499299 0.045881875 -4.588e-40 -0.023506701 -2.5258792e-38 0.004263527 -0.027649174
0.0033768362 -3.8078248e-38 -0.048524886 6.992e-41 0.034892224 -1.000977e-39 7.013179e-05 -5.8969e-40

layers.2.bias f4 [64]
00000000: b32c b9bb c4a4 1b3b 8329 953b 0789 0180
00000010: 279c b3b6 1308 54be 1046 b9b9 3e6e a1b7
00000020: 434a 3cbe c4f1 87ba 83a7 1cbe cee2 24be
00000030: 4483 2bb9 9017 8a3a 931b 0480 e1ad 46be
00000040: 5fa5 3906 de90 f9b7 d951 3abe 668a 4fbe
00000050: 8a27 39be 3ac5 51be 763f 3bba 72c1 0a00
00000060: 1208 abbd 749f ddb6 0d82 35be 100f 6ebe
00000070: 6a07 7f3a 7355 4006 99d4 62be e508 cfbe
00000080: c9cf 2dbe 3cbc b6b6 77c4 c3b3 6126 3bbe
00000090: eb0d 8d3b b622 42ba 3a5e 993b 77af 5938
000000a0: 1cfc a8bb 1172 1bb8 ef9b 10be 9646 0cbe
000000b0: 8405 c3bd c9ce cc37 6030 122f 6db9 86ab
000000c0: 48fe 33be 6a5b 2abe 40d4 64be ab02 68be
000000d0: 3714 3abe d821 0629 a86d 44be fb91 d7b9
000000e0: 68d9 d185 39de 0abb c7f2 9e35 b061 b3b7
000000f0: 7f2b 4c35 ad8c 7dbe a86d 3abe 7019 7ab7
-0.0056510805 0.002374933 0.0045520677 -1.40992e-40 -5.3527942e-06 -0.20706205 -0.0003533815 -1.9244031e-05
-0.18387704 -0.0010371734 -0.15298276 -0.16102144 -0.00016356731 0.0010535587 -3.77234e-40 -0.19402267
3.4916128e-35 -2.9750572e-05 -0.18195285 -0.20267639 -0.18081489 -0.20485392 -0.00071429403 9.8775e-40
-0.08351149 -6.604876e-06 -0.17725392 -0.23247933 0.0009728583 3.6173965e-35 -0.22151412 -0.40436473
-0.16973795 -5.445936e-06 -9.116132e-08 -0.18276359 0.0043046377 -0.0007405685 0.004680422 5.1900246e-05
-0.005157007 -3.7061112e-05 -0.14121984 -0.13698801 -0.095225364 2.4414987e-05 1.3295809e-10 -9.572739e-13
-0.1757747 -0.16636434 -0.22346592 -0.22657268 -0.18171774 2.9783332e-14 -0.19182456 -0.0004111676
-1.9734128e-35 -0.0021189584 1.1842575e-06 -2.1383952e-05 7.605922e-07 -0.24760695 -0.18205893 -1.4907084e-05

layers.4.weight f4 [32, 64]
00000000: bcf8 7e3d eb54 9ebc 089a a4bc adac 0580
00000010: 62d4 d8b7 4123 e73c 37bc 8a3d 2fae 41bb
00000020: cb69 253c 8895 8fba d76b af3d 4390 653c
00000030: ef44 b2bc b517 e83c cb0c 713a 9bcd 5c3d
00000040: 3555 e93c f65c 32bd 2e0a 7f3d 9662 133d
00000050: 7c2c 853d 0833 a33d b974 87bb 7f0e d829
00000060: 350c 313c f697 df3b 29d0 983d 7357 42bd
00000070: 1644 7b3d 32a5 d63c 4346 f7bc 6795 ee3e
00000080: 0b52 86bd cda6 44bd 818c b93c a8fa 873d
00000090: 262b 033c bfa1 ef3c 821b 4d3d 3cc0 02bc
000000a0: 6bc8 b53d 8861 57bd 1767 a63c e456 f53c
000000b0: 4c25 89bd e513 80bd 2185 68bb a432 1aba
000000c0: 48a1 173d eae2 e43d 6d8e 083e eef2 acb9
000000d0: a08a 883d d88c 2b3d 9e35 d63d b1b3 05bd
000000e0: 4c71 293d ac6f e33a 4263 dbbb 86fc acbc
000000f0: 7379 edbc fc69 9fbd 0e1a 843d 1fdb 6d3c
00000100: b0b8 933d 4495 b6bb 7632 4c3d 9be7 0f30
00000110: 9011 4dac 61cc 793d 0d35 35bd 4924 8c39
00000120: 1838 163e 80d4 243b 41e2 023c bc9f 5e3b
00000130: ad7f 8cbc 4ddc 93bc 6dff f13b 581a 863d
00000140: 2e9d 223d b9df 37bd f755 b43d 3d4a 2f3e
00000150: 219b b53d 0058 a03d 50f0 3b3d f837 bb33
00000160: f069 de3c 5f9a b93b 7f30 153e 9022 203d
00000170: bba1 63bd 7552 193d d2ac 3d3d 8810 fd3e
00000180: ea89 4ebd 5edb 51bd abe8 033d a368 bb3d
00000190: 25dd 91bc d50b 303c 5b21 ba3c 2df1 e0bb
000001a0: eb0b cb3d 0ce6 933d c867 033e b7c9 423d
000001b0: 9bbe f33c 41cb 6f3d c7f8 0300 99db 5aba
000001c0: 1a75 edbc 0c52 c83d 3337 7bbd 67b2 293e
000001d0: 50b5 c13d abe3 493d 03aa 1d3e 84a0 b93c
000001e0: e71f 713d 7406 c33c 5301 453c e777 5fbd
000001f0: 9355 34bd 7101 ac3d c084 b43d 1518 3f3d
00000200: edb4 85bd 4872 0100 50c2 0780 97a3 0680
00000210: ee9e 0380 608c 523d 4a6c 0000 e9eb 0700
00000220: 5815 963d d4c3 0400 3c11 4f3d a551 833d
00000230: 70bb 0880 f0aa 1181 8843 9f3a 140f 693d
00000240: 50fe f03c c24c 32bd 1cc6 823d 2152 943d
00000250: 3a2a 883d 7d04 9a3d ba0f 0b80 a9a6 162b
00000260: 77a6 703c fc5a dd3b e9bf 9e3d 144b 8d3d
00000270: 2d58 483a ee0e e03c 6363 a43d e271 f33e
00000280: 0ad9 7e3d ad4d 4abd c8cf d13c 27f2 8c3d
00000290: d2d5 2880 7e52 3b3c db18 973c 8c24 0d80
000002a0: 1e91 59ba befa 4b80 30f6 983d f6e3 0a3d
000002b0: ca58 033d cb6e 3c00 c50a 0080 9ae5 0c80
000002c0: 5b3d 463d 8cf6 8d3d 95e2 8b3d 61c5 973d
000002d0: 36f0 893d 7e53 3d3d e760 773d 91e2 8fb9
000002e0: 2dd9 393d fd2e 1cb9 f465 0300 afbd 0780
000002f0: 9358 0280 9865 833d 7869 823d 8eef aa9a
00000300: 6e8d 8c01 86e6 9b00 7f36 0080 1593 0400
00000310: b4c3 0480 f06d bebc 75e6 6b80 8a02 0480
00000320: 78d0 e3bc 1235 0600 0c29 9bbc 52b1 c5bc
00000330: 2267 2b00 d6a6 0380 2e42 0b00 0f65 c9bc
00000340: 659a 0100 10a5 0000 15ca dbbc a75d ddbc
00000350: 0c88 e0bc 8bd5 d2bc 13ce 0000 4e71 0700
00000360: ce7f 7fbc b2b2 33bd 4117 d5bc 8fda d4bc
00000370: d419 0680 0f84 0600 b8b7 e2bc 80ff 6a80
00000380: 40ee c1bc ee78 2700 078b 8f34 0351 f0bc
00000390: bad9 0680 74bc 0c00 3446 0680 2056 0100
000003a0: ea5e 0500 8b88 0880 3b59 d4bc d201 ccbc
000003b0: 622b 79bc 7849 ef01 a4a6 8a80 b81b 5b80
000003c0: 36fd b9bc 7e09 cfbc 0311 cbbc 79cd d9bc
000003d0: 2853 d9bc e529 39bd b8b4 afbc 0494 0080
000003e0: e820 4600 e485 e8a8 f68d 3f00 ed0b 0300
000003f0: 67fa 0900 3cb0 dabc 3cf9 e4bc 8f03 0200
0.06224893 -0.019327601 -0.02009298 -5.21122e-40 -2.5848105e-05 0.028215053 0.067741804 -0.0029553284
0.010096024 -0.0010954598 0.08565491 0.014011445 -0.021761386 0.028331617 0.0009195327 0.05390702
0.028483013 -0.043545686 0.062265567 0.03598269 0.06502625 0.07968718 -0.0041337875 9.5948416e-14
0.010806133 0.006823535 0.074615784 -0.04744668 0.06134423 0.026201818 -0.03018487 0.4659836
-0.06558617 -0.048010636 0.022650005 0.06639606 0.008005893 0.029251931 0.05007506 -0.007980403
0.08876117 -0.052583247 0.020312829 0.02994866 -0.06696567 -0.062537946 -0.0035479742 -0.000588218
0.037019044 0.11176093 0.13335581 -0.00032987393 0.066670656 0.041882366 0.104594454 -0.03264207
0.041367814 0.0017352006 -0.006695182 -0.021116506 -0.028988576 -0.07783887 0.06450282 0.014517575
0.07212961 -0.005571993 0.04985281 5.235223e-10 -2.9142001e-12 0.060985927 -0.044240046 0.00026729915
0.14669836 0.0025151074 0.007988513 0.003396972 -0.017150724 -0.018049384 0.0073851855 0.065479934
0.03970068 -0.044891093 0.08805459 0.17118163 0.08867479 0.07829285 0.045883477 8.718047e-08
0.027150124 0.0056641544 0.14569281 0.03909546 -0.05557416 0.037432153 0.046307392 0.49426675
-0.050424494 -0.051234595 0.03220431 0.09150817 -0.017805645 0.0107450085 0.022720983 -0.006864688
0.099143825 0.07221612 0.12832558 0.04755565 0.029753974 0.058543447 3.64751e-40 -0.00083487626
-0.028986502 0.09781274 -0.06133194 0.16571961 0.09458411 0.049289387 0.15396886 0.022659548
0.058868315 0.023806788 0.0120242415 -0.054557707 -0.044026922 0.083987124 0.088143826 0.046653826
-0.065286495 1.32832e-40 -7.12555e-40 -6.09698e-40 -3.3252e-40 0.051403403 3.8847e-41 7.27477e-40
0.0732829 4.37592e-40 0.050553545 0.06412057 -8.01924e-40 -2.6754936e-38 0.0012150863 0.056899145
0.02941814 -0.043530233 0.063854426 0.07242227 0.06648679 0.07520387 -1.015832e-39 5.352199e-13
0.014688126 0.006755231 0.07751448 0.06899086 0.0007642534 0.027350869 0.08026769 0.47547823
0.062218703 -0.049390484 0.025611773 0.068821244 -3.750124e-39 0.011433242 0.01844447 -1.206972e-39
-0.0008299517 -6.977612e-39 0.074688315 0.033908807 0.032067098 5.549875e-39 -3.863e-42 -1.184391e-39
0.048398357 0.06931791 0.068303265 0.07410694 0.0673527 0.046222202 0.060395148 -0.0002744389
0.04537313 -0.00014894824 3.1208e-40 -7.10894e-40 -2.15445e-40 0.06415862 0.06367773 -7.0697374e-23
5.163082e-38 1.4317198e-38 -1.955e-41 4.20105e-40 -4.37547e-40 -0.023245782 -9.90907e-39 -3.68253e-40
-0.027809367 5.70051e-40 -0.018940471 -0.024132404 3.985923e-39 -3.35356e-40 1.033931e-39 -0.024584321
1.47222e-40 5.9213e-41 -0.026829759 -0.027022196 -0.027408622 -0.02573659 7.3926e-41 6.83495e-40
-0.015594436 -0.04387159 -0.026012065 -0.025983123 -5.60278e-40 5.98387e-40 -0.027675495 -9.826219e-39
-0.023673177 3.624966e-39 2.673698e-07 -0.029335504 -6.29119e-40 1.16963e-39 -5.76197e-40 1.22731e-40
4.93226e-40 -7.83666e-40 -0.025921455 -0.024903212 -0.015208097 8.7900157e-38 -1.2733078e-38 -8.366974e-39
-0.022703748 -0.02527308 -0.024788385 -0.026587235 -0.02652891 -0.04520597 -0.021448478 -5.3098e-41
6.440289e-39 -2.581524e-14 5.836562e-39 2.79785e-40 9.16347e-40 -0.026695363 -0.027950875 1.84948e-40

layers.4.bias f4 [32]
00000000: 6d0a 14be d867 36be 9681 12be e0e0 1926
00000010: e322 b8bc 5c8b ceba 0501 d2a6 e04e 0980
00000020: f203 1b26 19ad c2bd 5b25 043d 7700 b4b9
00000030: f88b 12bc cb5e 2fbe b207 16bd 5589 bcbd
00000040: df28 b73d 2863 f3ba fcce 12be 34ce 053d
00000050: 2398 14be a5a4 12be 9baf 11be 904b 873b
00000060: f9be f1bb 0a08 5ebe fbcc 12be 6322 7fbc
00000070: f064 16bb 33ca 573d 4c61 7bbd 80e3 99bd
-0.14457102 -0.17813051 -0.14307246 5.33873e-16 -0.022477573 -0.0015758085 -1.4571954e-15 -8.54814e-40
5.3781775e-16 -0.09505672 0.032262187 -0.00034332622 -0.008944504 -0.17126004 -0.036628433 -0.092058815
0.089433424 -0.001856898 -0.14336771 0.032667354 -0.1451116 -0.1432062 -0.14227144 0.004128881
-0.007377502 -0.21682754 -0.14336006 -0.015572163 -0.0022948347 0.052683067 -0.061372086 -0.07514095

layers.6.weight f4 [8, 32]
00000000: ebc8 1b3d 3a94 ed3c d971 0a80 53b2 0380
00000010: 8246 3b3d 8114 e33c db79 0880 2442 0400
00000020: 5143 0b00 f26a 0c3d 3af8 0800 fb0e 983d
00000030: d3e3 833d f16a 0800 2e68 8f3d 0bd3 93bd
00000040: 8657 3c3b 6446 0580 cc0f e83d 43b8 643b
00000050: a1cc 95bb 3509 0100 1699 6580 1dac 0680
00000060: df80 e33b d346 14bd df9a 0480 2dda cebd
00000070: d736 13bc c71b 01be 17b7 04be 18fc a3bd
00000080: bbf8 22bc 676c 443e 70c8 963d 52b6 033d
00000090: fac3 5ebd 9c9b 0880 d1c2 643d 5c7c 0632
000000a0: 2100 0080 5e70 6f3e a61e 31bc 65ba 38bd
000000b0: 09d8 5ebc da8f b23d c3d0 0a80 5769 833d
000000c0: abb8 b5be 99a6 c839 7e06 933e dee0 5bbc
000000d0: dabc cf3d 45cb 973d 07e1 9b3d d832 b2b9
000000e0: 18a6 023d 698f 483d 8234 a23d bf7f 553d
000000f0: 3139 bc80 b0e6 d43d f02e bfbc 73b3 db3c
00000100: 14f5 eabd b592 3a3e d6ec 963d 831a 013d
00000110: 53b6 09be 5c84 a83b 6e95 643d 9505 6c32
00000120: 4580 0280 75ec 263e c51d ea3d ca12 c93d
00000130: a782 babd 57e6 b13d 203f e23c 963d 003e
00000140: 981d 30be 81f8 27bd e750 e33d e12b 833d
00000150: 4ec7 8bbd 6670 993d f294 953d 5ad2 363d
00000160: c63d 953b 5bc8 243e c549 a23d f2b4 cb3d
00000170: 390d 27bd f482 c6bd 3d62 303e cf19 d93d
00000180: c764 09be 5d19 95bd b185 0700 1cbf 0080
00000190: 3499 073e 60f7 a23c 164f 0300 58d9 0b00
000001a0: e5ed 5a80 41f1 8dbd 3dc1 0980 edd6 9cbd
000001b0: 3ba4 b73c 6399 adb5 31f4 b2bb 22e0 92bd
000001c0: c378 56bc 1a92 53b3 7ee0 cfbd ce83 be3c
000001d0: 508e cd3a 156a 2c80 6462 0380 8ca4 ab39
000001e0: 3b4d 2dbd 4b0c ba3c 60a8 0400 ebba 89bb
000001f0: 1cb7 55bc 69ba 16bd 7a78 97bc 7aa2 263d
00000200: 1626 1dbd 2606 39bd 4987 2ebd f8ca 89bc
00000210: ec2b 0280 1f3f 0400 6555 0480 ec65 0580
00000220: c966 f580 64de 52bd 6097 0680 2993 0380
00000230: 94ad 0480 92dc 12bd 4532 0100 0652 16bd
00000240: 1182 0600 556f 0000 ff19 51bd f132 0400
00000250: 0e52 19bd e155 18bd 92cb 2ebd 4e3a 5180
00000260: 2f08 0680 95d3 24bd 7038 27bd 63fb 0680
00000270: 97a6 0700 ca0c 0680 f036 30bd 7fb1 45bd
00000280: 9db9 073e 2d54 d73d a80a 933d 6889 023d
00000290: 42d9 abbd 52f4 5c3c 1dd7 623d 4837 1d31
000002a0: 3b58 0b80 a925 633e b332 0100 ad2f 39bd
000002b0: 70ad 88bd 6ab7 a63d dae3 9c3d b627 803d
000002c0: 300a f0be d5eb 0700 d550 8b3d 3ded 58be
000002d0: 19d3 313e 961d 933d ef52 953d 9527 1a3a
000002e0: ae10 06be 7b29 923d 37f9 9b3d c735 823d
000002f0: ffb3 91bc db49 ac3b 9f6c 943c cd8d c13d
00000300: 96fd 953d 8553 823d ecb6 883d e635 0300
00000310: 05c9 5380 11e6 0900 8f38 0780 6cf3 0c00
00000320: 7eb0 9697 c86f 683d f74b 0c00 c778 0400
00000330: d12b c681 5275 8f3d 91ef 0c80 5cbb ae3d
00000340: 6358 0dbf 1182 0480 2ff8 753d f2c9 0000
00000350: 6bb4 893d efad 873d 1b49 893d db80 ed3a
00000360: 6a67 cabd d1ce 833d cb74 873d 3002 2700
00000370: 8c01 3101 8527 0880 656a 583d 1a0a 863d
00000380: e2e8 573e c788 6c3d 09d9 993d abee 013d
00000390: 61f6 a73d f58e b33c f12b 673d 5e73 2533
000003a0: 2c72 7791 80e8 3f3e 158e 50bd 687c 0bbe
000003b0: 8a16 cf3d 98cb 1fb9 0bb2 8dbc 6160 fdbc
000003c0: 7d35 18be 1e6f 07bd 0122 273e 935f 1abb
000003d0: 9fc6 4f3e 53d9 9a3d 6e14 9c3d da1f cd3b
000003e0: 39bb 5dbd 8461 5f3e 272b a43d e42a bbbd
000003f0: d97e 633c d61a 8f3d 77e5 493e 16a2 763e
0.038033407 0.029001344 -9.59196e-40 -3.39477e-40 0.04572154 0.027719738 -7.78397e-40 3.91069e-40
1.034339e-39 0.03428168 8.23731e-40 0.07424732 0.064399384 7.73047e-40 0.070022926 -0.072179876
0.0028738691 -4.84429e-40 0.11331138 0.0034899868 -0.004571513 9.5138e-41 -9.330302e-39 -6.12756e-40
0.006942853 -0.036200356 -4.22899e-40 -0.101002075 -0.008985243 -0.12608252 -0.12960468 -0.080070674
-0.009946997 0.19181977 0.07362449 0.032156296 -0.054386117 -7.90506e-40 0.055849854 7.828103e-09
-4.6e-44 0.23382708 -0.01081053 -0.045099635 -0.0136013115 0.08718844 -9.93245e-40 0.06416576
-0.35492453 0.00038271098 0.2871589 -0.013420312 0.101434425 0.074118175 0.0761128 -0.00033988687
0.03189668 0.04896489 0.07920171 0.05212378 -1.728559e-38 0.10395563 -0.023337811 0.026818966
-0.11472526 0.18220027 0.073693916 0.031519424 -0.13448457 0.0051427316 0.05580657 1.3738277e-08
-2.29685e-40 0.16301139 0.11431459 0.09818037 -0.09106951 0.08686512 0.027617991 0.12523493
-0.17198789 -0.041008476 0.11099415 0.064048536 -0.06825124 0.074921414 0.073038 0.0446342
0.004554483 0.16092055 0.07924227 0.09946622 -0.040784094 -0.09692946 0.17224975 0.10600626
-0.1341735 -0.07280228 6.90808e-40 -6.8557e-41 0.13242036 0.019893348 3.03877e-40 1.088159e-39
-8.350535e-39 -0.06930781 -8.9584e-40 -0.07658181 0.022417178 -1.2934146e-06 -0.005461239 -0.07171656
-0.013090315 -4.9260144e-08 -0.1015024 0.023256209 0.0015682671 -4.078817e-39 -3.10802e-40 0.0003273826
-0.04230998 0.02271094 4.27744e-40 -0.0042031906 -0.013044145 -0.03679887 -0.018490065 0.040682293
-0.0383664 -0.04517188 -0.042609487 -0.016820416 -1.99427e-40 3.89986e-40 -3.97976e-40 -4.9574e-40
-2.2536569e-38 -0.05148162 -6.05316e-40 -3.28298e-40 -4.2961e-40 -0.035854883 1.09869e-40 -0.036699317
5.97672e-40 3.9938e-41 -0.051050182 3.85616e-40 -0.03743177 -0.037191276 -0.04267461 -7.459591e-39
-5.53949e-40 -0.040240843 -0.040825307 -6.41194e-40 7.0261e-40 -5.55601e-40 -0.043021142 -0.048264977
0.132544 0.10514102 0.07179767 0.031869322 -0.08391048 0.013485985 0.05538093 2.287793e-09
-1.041842e-39 0.22182335 1.10023e-40 -0.045211483 -0.066737056 0.08140452 0.07660647 0.06257574
-0.46882772 7.27449e-40 0.06802527 -0.21184249 0.17365684 0.071833774 0.07291209 0.0005880532
-0.130923 0.07136818 0.07615893 0.063579135 -0.017786024 0.0052578277 0.0181182 0.094508745
0.07323758 0.06363586 0.066755146 2.94842e-40 -7.694458e-39 9.09052e-40 -6.63138e-40 1.189349e-39
-9.738076e-25 0.056747228 1.129277e-39 4.10669e-40 -7.2796586e-38 0.07004799 -1.187966e-39 0.0853183
-0.5521299 -4.14001e-40 0.06005114 7.2444e-41 0.06723865 0.06624972 0.06703397 0.0018120067
-0.09883006 0.064359315 0.06614073 3.582369e-39 3.2510875e-38 -7.48861e-40 0.05283584 0.065448955
0.21084931 0.05774763 0.07512099 0.031721752 0.0820129 0.021918753 0.05643839 3.8521982e-08
-1.9520046e-28 0.18741035 -0.05091675 -0.13621676 0.10111721 -0.00015239266 -0.017296812 -0.030929746
-0.14864154 -0.033064954 0.16321565 -0.0023555502 0.20290612 0.075609826 0.07621084 0.0062599005
-0.054133628 0.21814543 0.08016043 -0.0913904 0.013885223 0.069875404 0.1971644 0.24085268

layers.6.bias f4 [8]
00000000: 868c 8a3d e844 60be 38f3 953c efed e23d
00000010: 99da a4ab 9f87 cbbd be75 a2be a47a 05bd
0.06765084 -0.21901286 0.018304452 0.110805385 -1.1713574e-12 -0.09937977 -0.31730455 -0.032587662

layers.8.weight f4 [4, 8]
00000000: b9e6 a1bd dfea 07bb 2060 803e b8b2 b53d
00000010: 2c61 0300 216e d93c 1a4c 0380 377c 92be
00000020: bf7a 7f3d a832 0c01 e518 a3be cd64 d33d
00000030: 2cc4 0680 d7de 263e fd2f 0900 6e0f 803d
00000040: 32be 0500 3069 eb3d 3356 ef3d 023e 0300
00000050: 2024 c6b8 ec10 d73d a229 9c3d a9e7 023e
00000060: 17e1 3f3e 34fd 0fbd ee5e 573e e6e3 47bd
00000070: 4e6c cb00 ab33 103c b82b 0500 0570 b7be
-0.07905335 -0.002073936 0.25073338 0.088719785 3.10365e-40 0.026541771 -3.02807e-40 -0.28610393
0.06237292 2.5750283e-38 -0.3185493 0.103219606 -6.21386e-40 0.16295944 8.43734e-40 0.06252943
5.27407e-40 0.11494672 0.11686363 2.9775e-40 -9.4481045e-05 0.105012745 0.07625128 0.12783684
0.18738209 -0.035153583 0.21032307 -0.048801325 1.8681458e-38 0.008801381 4.74861e-40 -0.35827652

layers.8.bias f4 [4]
00000000: e7c2 61be c534 d23d 3ce3 c3bc 33dd 033e
-0.22047006 0.10263971 -0.023912065 0.1287735

layers.10.weight f4 [1, 4]
00000000: 9fd0 2fbe bb9b 3cbe fed7 f13d 8051 c8bd
-0.17169426 -0.18418781 0.11808775 -0.0978117
