[EE5184]Machine Learning/hw/hw1/models/model5.ckpt (torch, 2775 bytes, 5 tensors)

layers.0.weight f4 [5, 24]
3.8518124 0.12320472 -0.44430792 -0.3541106 -0.05753458 -1.0331026 -0.7210934 -1.2044913
-0.4504645 -0.26108816 0.17519826 0.0794811 -0.6797878 -0.24685583 -0.05304797 -0.17041036
-0.60538393 -1.2376041 -0.12280033 0.40758362 0.83992785 1.23436 0.5816477 1.3066368
0.1954503 -0.0712399 0.17654899 0.17212117 0.044142663 -0.020531818 0.08440477 0.06804907
-0.0464174 -0.067845136 -0.14512913 0.035352096 0.18191797 -0.089923725 -0.12921762 0.063004375
-0.18978292 -0.032326177 -0.19045408 -0.006082356 -0.0023396164 -0.104478784 -0.004422024 0.021786198
-0.8003297 0.23641446 0.20466977 0.060348153 0.028373238 -0.312822 0.42601585 -0.06494754
-0.04261221 0.08083871 -0.14141285 -0.8604501 -0.7710622 -0.036752027 0.13138422 -0.37090844
-1.7002324 -1.7794687 -0.48240888 0.099424995 1.1557537 1.5692756 1.0183675 0.22797117
-6.3940473 0.88838995 0.7385598 -0.6850097 -0.0145825995 0.10062442 1.2168223 0.6322789
-0.40289038 -0.14559166 0.099299796 0.18465899 -0.092543304 -0.085904256 0.14190245 -0.09704801
-0.45700502 -0.52161664 -0.10590664 -0.024694923 0.99189645 2.2905965 2.0114827 0.30487832
-0.43329856 0.6681305 0.16698997 0.025945967 0.041385118 -0.04336085 0.51025844 0.32770205
0.008402824 -0.014700121 0.11979462 -0.70239604 -0.46085954 0.01167239 -0.09829155 0.15329374
-1.4361314 -1.3210732 -0.1494516 -0.040386256 1.7618179 1.8627456 1.4738156 0.36330247
00000000: 1884 7640 c252 fc3d 547c e3be fc4d b5be
00000010: 61a9 6bbd b53c 84bf 9499 38bf c52c 9abf
00000020: 48a3 e6be 59ad 85be 2c67 333e fdc6 a23d
00000030: 9306 2ebf c6c7 7cbe d448 59bd 0e80 2ebe
00000040: 71fa 1abf d069 9ebf bd7e fbbd cdae d03e
00000050: 8305 573f 82ff 9d3f dde6 143f e03f a73f
00000060: 2024 483e 3ae6 91bd 42c9 343e 8840 303e
00000070: f0ce 343d 5832 a8bc 68dc ac3d 505d 8b3d
00000080: 2c20 3ebd 64f2 8abd bb9c 14be 5ccd 103d
00000090: b448 3a3e ee29 b8bd a051 04be 7008 813d
000000a0: 7456 42be 7468 04bd 6506 43be 804e c7bb
000000b0: 4054 19bb f9f8 d5bd a0e6 90bb f878 b23c
000000c0: 68e2 4cbf a216 723e f494 513e a02f 773d
000000d0: fe6e e83c 352a a0be c01e da3e 3703 85bd
000000e0: 248a 2ebd c48e a53d 88ce 10be 7546 5cbf
000000f0: 5564 45bf 4b89 16bd 9689 063e b6e7 bdbe
00000100: 37a1 d9bf a1c5 e3bf 4cfe f6be 559f cb3d
00000110: bdef 933f 06de c83f de59 823f 4671 693e
00000120: 099c ccc0 866d 633f 4112 3d3f cc5c 2fbf
00000130: dbeb 6ebc 2d14 ce3d d5c0 9b3f 08dd 213f
00000140: a647 cebe fb15 15be b15d cb3d 3f17 3d3e
00000150: 5887 bdbd 92ee afbd e04e 113e 1bc1 c6bd
00000160: 90fc e9be ab88 05bf 95e5 d8bd 024d cabc
00000170: edec 7d3f 2299 1240 22bc 0040 0319 9c3e
00000180: 4fd9 ddbe 9a0a 2b3f 6bff 2a3e a38c d43c
00000190: 7183 293d 269b 31bd 4ca0 023f 90c8 a73e
000001a0: 00ac 093c c7d8 70bc e256 f53d 3ad0 33bf
000001b0: c8f5 ebbe 8d3d 3f3c 154d c9bd 09f9 1c3e
000001c0: 27d3 b7bf ed18 a9bf d709 19be 0f6c 25bd
000001d0: 4083 e13f 736e ee3f fda5 bc3f c802 ba3e

layers.0.bias f4 [5]
-0.12801558 -0.06533906 -0.51949257 -0.28572306 -0.7358183
00000000: 8416 03be 7cd0 85bd 77fd 04bf 4b4a 92be
00000010: 975e 3cbf

layers.2.weight f4 [5, 5]
0.275716 -0.42414644 0.060474463 -0.008549704 0.48962548 0.15398769 -0.3290702 0.27950403
0.17353836 0.5092104 0.8047714 0.36646175 -0.21325545 -2.0519881 0.11816266 -0.3586989
-0.10169828 -0.41578794 -0.34175333 -0.07320515 -0.24392343 -0.044839203 -0.094997786 -0.32253483
-0.1999851
00000000: a62a 8d3e b929 d9be 12b4 773d 0f14 0cbc
00000010: 31b0 fa3e f3ae 1d3e e47b a8be 271b 8f3e
00000020: 0ab4 313e 9d5b 023f 8005 4e3f e0a0 bb3e
00000030: a35f 5abe c653 03c0 44ff f13d 62a7 b7be
00000040: 3047 d0bd 28e2 d4be 4bfa aebe 95ec 95bd
00000050: 10c7 79be 50a9 37bd 338e c2bd 4923 a5be
00000060: e5c8 4cbe

layers.2.bias f4 [5]
0.057457987 -0.34275848 -0.70950216 -0.12634231 0.049969207
00000000: 1159 6b3d 0a7e afbe efa1 35bf e15f 01be
00000010: 83ac 4c3d

layers.4.weight f4 [1, 5]
0.4996648 0.33230716 -0.13515982 -0.12292245 0.34603068
00000000: 11d4 ff3e 2a24 aa3e 5667 0abe c4be fbbd
00000010: ef2a b13e
