[EE5184]Machine Learning/hw/hw1/models/model0.ckpt (torch, 58817 bytes, 11 tensors)

layers.0.weight f4 [128, 24]
00000000: 7e0f a7bc 2108 ee3c 3687 c93c 9afa 5e3d
00000010: 865c 88bd 6faa 57bd 4943 cc3c dae0 bf3c
00000020: 2ad8 9f3d 1ac2 703d 3461 993d d0cc 953c
00000030: 37b9 a03c d09a 6bbc 1fd8 f33d 14da 0b3e
00000040: f7ac 383d 26a9 343d 13b4 8abc e5a7 fd3d
00000050: 7ca9 863e 4ee4 e13d 5193 da3d 0d4f 083e
00000060: c928 4e00 e78e 8281 1c44 4300 1150 3c00
00000070: 22c2 e400 9ebb 1181 1bc6 2301 507a 8c01
00000080: ed0b 0681 34dc 9781 9fa7 3c80 edf9 4300
00000090: 36ce 4600 1e05 e380 2383 7080 affd 9901
000000a0: c642 3b80 adb8 5c00 220a 3380 469a 0881
000000b0: ae27 4a80 e6e9 aa80 9595 a601 d478 7701
000000c0: 9a53 2dbd a2ef 893d 0b73 973d 198b 3c3e
000000d0: 92fe 07bd 4638 363e 804e a33d 610a a23d
000000e0: b9a1 053e 2d00 d03d 5c05 2f3e 5921 b43d
000000f0: ca39 b63d f850 153e a9d4 433d 4d19 613d
00000100: c6d3 8a3d 3a17 843d a8e3 48bd f58a 263d
00000110: 3287 8f3d 261b 873c 19c8 8f3c e205 ac3d
00000120: 085e a580 4cd7 1c00 6680 9c01 e7c6 80a6
00000130: 7d0a e6b2 9628 a681 17e8 6c01 202f 0b01
00000140: d5e1 35a6 ae42 acb2 7630 5400 87e7 8101
00000150: a255 9580 5b91 47a6 a89a 8ab2 ce5e 9a81
00000160: 8b5e 3981 6209 8001 a5c9 87a6 2719 8ab2
00000170: be8d 4a9f 826b 7a00 80ae 7100 1325 a7a8
00000180: f72b 0bbd ebc6 833c 2fd4 4d3c 1a2e d83c
00000190: e834 613c e6a9 72b9 84da 503c 6cac 2e3c
000001a0: eeb8 0b3d 7a5b 5a3d f0e4 233d 6e92 fc3b
000001b0: 328c 1f3c 302a 363d c6be 36bd 4344 fa3d
000001c0: adf6 233d ef20 213d e60c 5e3d 004a 6ebb
000001d0: c5e1 8d3e 7c17 e83d 6978 e23d f925 903d
000001e0: 8ee4 b3bc 6d0b d63c d7c7 ba3c 53c9 033d
000001f0: 9bcd b6bd 0f91 a3bb d4d0 b03c 9f8c aa3c
00000200: 6863 253c 8aa8 9d3d fcb0 e13c 7ca1 8b3c
00000210: 0d20 943c 9d4c 233d 8dea c93d 063d 0c3e
00000220: 8b8f 333d b2de 323d 0d03 003c 2c6b f43c
00000230: 1001 583e 8264 dc3d 4763 d73d 8257 4f3d
00000240: ba8d 7f00 d0d8 ae80 70d8 0081 847d 5781
00000250: 768a 8c81 8065 5c81 72b9 9501 708b d800
00000260: 0688 3181 92a9 b380 45ff 6881 9ab6 7f81
00000270: ff6a a780 d86d bf80 5a89 f900 75eb 6100
00000280: d779 9781 e0cd 6280 6733 9e81 94f6 5c00
00000290: bedb 0901 b084 9101 4e25 1801 476d b400
000002a0: 5f2a 4d80 f1a1 0d80 8565 e180 f5ea 3c80
000002b0: 1b8b 3480 6e27 8b00 f402 9680 28a3 4d00
000002c0: e524 6401 43de 3780 0185 ac80 67b1 a481
000002d0: 3cd4 7980 e5dd 4580 1def e080 f644 4781
000002e0: 603f 2181 b954 4000 2107 0380 5a95 af80
000002f0: 038b 8e00 9972 8780 fb7d 5d80 ed47 7a80
00000300: 07f5 14bd 7165 533c 33f7 193c bc85 933d
00000310: 0da1 fabd 43f5 33bc 56e3 1c3c 0057 e43b
00000320: e6b9 a33d e353 1bbd 3d42 343d a3f3 af3b
00000330: 39d5 e93b 5615 39bd 2390 ee3d 16fe 3a3e
00000340: f321 1b3d 53e2 143d fc13 b73d 1e0f 5b3d
00000350: de2e 8e3e 1ab8 e73d c991 df3d 7a2a 04bc
00000360: 4aa1 5abd f3ec deba ae1b d6bb c470 2abd
00000370: cef0 8a3d a6c6 3abc bdde b1bb 0c36 fabb
00000380: a808 13bd 3398 31bd 5887 863d d797 08bc
00000390: c4e8 eabb 383c 35bc 007c 46bc 5727 d73d
000003a0: 6036 fa3c 3700 f53c 1888 70bd df1a dfbc
000003b0: 7a39 a13e d121 ee3d 656a e83d 41d4 dd3d
000003c0: 97e4 7fbd b934 e13b cf21 c63b 0da4 10be
000003d0: aa2e b7bd 3909 26bd e76e e73b 480c ba3b
000003e0: ea4f 5d3d ca43 ed3d 91e8 97bb fce0 943b
000003f0: 1f49 db3b 669d 5f3d 10e5 cfbb d99f 4e3e
-0.02039313 0.02905661 0.024600606 0.05443821 -0.066582724 -0.052652773 0.024934428 0.023422647
0.07804902 0.05877886 0.07489243 0.018286139 0.019619567 -0.014380172 0.11906456 0.13657409
0.045086827 0.044106625 -0.01693157 0.12385539 0.2630118 0.11029874 0.106726296 0.13311405
7.1778e-39 -4.7959513e-38 6.177411e-39 5.538852e-39 2.1008135e-38 -2.6766903e-38 3.0080505e-38 5.160339e-38
-2.462047e-38 -5.5784616e-38 -5.570261e-39 6.242635e-39 6.502459e-39 -2.0848493e-38 -1.0332619e-38 5.656734e-38
-5.442248e-39 8.515115e-39 -4.687245e-39 -2.508994e-38 -6.810061e-39 -1.5695941e-38 6.119341e-38 4.5453425e-38
-0.042316057 0.067351595 0.073949896 0.18412437 -0.03320176 0.17794904 0.07973957 0.07912136
0.13049974 0.101562835 0.17091888 0.08795423 0.08897741 0.14581668 0.04781023 0.05495577
0.06778674 0.064497426 -0.049045235 0.040659864 0.07008208 0.016492438 0.017551469 0.083995596
-1.5186589e-38 2.648628e-39 5.748959e-38 -8.935697e-16 -2.6780294e-08 -6.103701e-38 4.351287e-38 2.5564078e-38
-6.310305e-16 -2.0053758e-08 7.731566e-39 4.771934e-38 -1.3714208e-38 -6.923899e-16 -1.6135644e-08 -5.6706704e-38
-3.4046965e-38 4.703324e-38 -9.422163e-16 -1.6076752e-08 -4.289241e-20 1.1242497e-38 1.044001e-38 -1.8556803e-14
-0.033977475 0.016086062 0.012562796 0.02638917 0.013745524 -0.0002314221 0.012747411 0.010661226
0.03411191 0.053309895 0.040013254 0.0077078855 0.009738015 0.044473827 -0.04461553 0.12220051
0.04003017 0.03933805 0.05421152 -0.0036360025 0.2771131 0.11332604 0.11058123 0.07038493
-0.02195957 0.026128495 0.02280037 0.03217442 -0.08925935 -0.0049916576 0.021583952 0.020819006
0.010094501 0.07698162 0.027550213 0.017044775 0.01808169 0.039867986 0.0985919 0.13695154
0.043838065 0.04366941 0.007813227 0.02983626 0.21094155 0.10761358 0.105169825 0.050620563
1.171395e-38 -1.6057154e-38 -2.3665173e-38 -3.9579316e-38 -5.162656e-38 -4.048044e-38 5.5000057e-38 1.9886488e-38
-3.2607358e-38 -1.6499384e-38 -4.2794817e-38 -4.6967113e-38 -1.5374911e-38 -1.7579984e-38 2.2916311e-38 8.992509e-39
-5.564347e-38 -9.073733e-39 -5.811379e-38 8.537321e-39 2.5320583e-38 5.3454985e-38 2.7944756e-38 1.656959e-38
-7.086533e-39 -1.251955e-39 -2.0699405e-38 -5.594416e-39 -4.825347e-39 1.2779279e-38 -1.3776384e-38 7.129863e-39
4.1903457e-38 -5.130685e-39 -1.5843418e-38 -6.0498645e-38 -1.118823e-38 -6.41625e-39 -2.0656929e-38 -3.6600005e-38
-2.96165e-38 5.907865e-39 -2.78064e-40 -1.6124789e-38 1.3090508e-38 -1.2438902e-38 -8.585894e-39 -1.1229733e-38
-0.03636649 0.0129026035 0.009397316 0.07203242 -0.12237749 -0.010983768 0.0095756855 0.006968379
0.07994442 -0.037921797 0.044008482 0.00536962 0.007136014 -0.045186363 0.11648586 0.18260989
0.037874173 0.036348652 0.089393586 0.053481214 0.27770132 0.113144115 0.10916478 -0.008066768
-0.053376473 -0.0017007872 -0.0065340614 -0.041611448 0.06784211 -0.011399901 -0.005428164 -0.0076358374
-0.035896927 -0.04335804 0.065687835 -0.008336983 -0.007168861 -0.011061721 -0.012114525 0.1050555
0.030543506 0.029907329 -0.05872354 -0.027234493 0.31489164 0.11627544 0.11348418 0.108315
-0.06247386 0.00687274 0.006046511 -0.1412508 -0.08944447 -0.04053614 0.007062781 0.0056777336
0.05403129 0.11585195 -0.0046358784 0.004543422 0.0066920663 0.054593466 -0.006344445 0.20178165

layers.0.bias f4 [128]
00000000: b1dc 1abd 0e5a 4680 0847 bf3c 53b9 0701
00000010: 1ef2 4abd edff 1bbd 4d6b 5481 cf05 7580
00000020: 7190 4bbd 1587 61bd ca0b 1dbd 9dc9 63bd
00000030: 3636 1700 5924 41bd 75db ab04 1918 003d
00000040: 6739 4a80 a5c6 3ebd 10fa 7180 ada6 65bd
00000050: b99c bf00 b29a 3abd 2d95 a900 dec0 7300
00000060: d878 26bb a388 34bd 94d0 75a3 79ec b2bc
00000070: 63de 58bd 0261 5abd 5661 5781 1ce0 2abd
00000080: cbd9 c03c a6d3 74bd 4043 66bd 21e4 6680
00000090: 2fc6 fc80 5336 6280 7e3c 53bd 6cba 64bd
000000a0: 385f 6ebd a5a0 5bbd 9924 5d3c 8c82 63bd
000000b0: 7915 1400 ae1e d100 684c 1f01 52c6 25bd
000000c0: 7f36 5fbd a595 59bd b9b1 5bbd ddda c03c
000000d0: be07 dbbc 25c6 4200 f035 6c80 652e 15bd
000000e0: 9699 4ebd 62b6 6e80 d730 5ebd 14d9 3f00
000000f0: cbdf ac3c 0360 41bd 60d4 2101 e4fe 6abd
00000100: 307a 51bd 67a3 1817 a456 3abd fecd 44bd
00000110: 1642 5abd c8da 2200 4914 063d fc90 da80
00000120: 5fd9 5fbd 61ed 38bd 6fc8 41bd f43a 04bd
00000130: 0ead 9701 320b 51bd 8ae6 cd80 f452 38bd
00000140: 1c5e 3b80 c82c 5e01 fbee 7800 3d48 2400
00000150: b6e3 49bd f03c 65bd 53fe 4abd 4709 7dbd
00000160: 6959 3dbd b61a 8581 6f7f 35bd 12a3 51bd
00000170: efa1 5fbd 2e0a 2a81 86ae 24bd 6bc8 6cbd
00000180: 75fd 9781 a33c 47bd 0218 2d01 04d3 b3bc
00000190: 0783 81bd 5508 52bd d95b 0500 8d69 4cbd
000001a0: 018b 5bbd c285 cdbc 1c2e ec80 54cd 2ebd
000001b0: 86ff 1abd de76 91bc 4c20 9980 4152 3a80
000001c0: f5fc 2f80 a9dc 5cbd 3a3e 66bd 7350 6280
000001d0: e222 393c 728f 9801 f543 52bd 80e5 dabb
000001e0: 3e40 65bd 9d07 5380 b705 e3bc efb7 37bd
000001f0: 5597 c7bb ae2f 72bd 50a7 66bd f694 3281
-0.037808124 -6.46079e-39 0.0233493 2.4928548e-38 -0.049547307 -0.038085867 -3.9015235e-38 -1.0746837e-38
-0.049698297 -0.055060465 -0.03834132 -0.055612195 2.131664e-39 -0.047153804 4.0403446e-36 0.03127298
-6.816419e-39 -0.04657616 -1.0467117e-38 -0.056067158 1.7596801e-38 -0.045557685 1.5573713e-38 1.063027e-38
-0.0025401618 -0.04407562 -1.3325645e-17 -0.021841275 -0.05294646 -0.05331517 -3.9559098e-38 -0.041717634
0.023541352 -0.059772156 -0.05621648 -9.449058e-39 -2.321364e-38 -9.019366e-39 -0.05157136 -0.05584185
-0.058196276 -0.05362 0.013497495 -0.05554442 1.844413e-39 1.9204624e-38 2.9258507e-38 -0.040472336
-0.05449533 -0.053121228 -0.053636286 0.023541862 -0.02673709 6.132224e-39 -9.937583e-39 -0.0364212
-0.05043944 -1.0167331e-38 -0.054245796 5.863509e-39 0.021102807 -0.047210705 2.97234e-38 -0.05737199
-0.051141918 4.932009e-25 -0.045492783 -0.048048012 -0.05328568 3.200891e-39 0.03273419 -2.0072149e-38
-0.05465066 -0.045148257 -0.04731029 -0.032282785 5.571696e-38 -0.051036067 -1.8908979e-38 -0.045000985
-5.452054e-39 4.080709e-38 1.110599e-38 3.331992e-39 -0.049289428 -0.055966318 -0.04955895 -0.061776426
-0.046227846 -4.889481e-38 -0.044310983 -0.051180907 -0.05459779 -3.1231372e-38 -0.0402055 -0.05780832
-5.583233e-38 -0.048641812 3.1792306e-38 -0.021951206 -0.063238196 -0.051277477 4.92126e-40 -0.04990535
-0.05359936 -0.025088195 -2.1689718e-38 -0.042676285 -0.037841342 -0.017756876 -1.4062417e-38 -5.355966e-39
-4.407012e-39 -0.053921375 -0.056211688 -9.028738e-39 0.011299821 5.6041816e-38 -0.05133434 -0.0066801906
-0.05596947 -7.625077e-39 -0.027712686 -0.044853147 -0.006091038 -0.059127502 -0.056311905 -3.280031e-38

layers.2.weight f4 [64, 128]
00000000: 8a99 a93d 9cb2 8b81 818a 1fbc 7895 4381
00000010: f5dd e33b 0da4 143d 83ab 0f01 a929 2c81
00000020: 61f2 623d 91ea ce3d 4e2e 0f3e daf4 cc3d
00000030: 67b5 5380 6630 c93d af4d 8bb4 0af0 e83a
00000040: bb16 0401 8511 bf3d 5a0e 8a81 19d2 9e3d
00000050: 5817 2800 2256 f83c 42d9 7600 857b 1e81
00000060: 7b4b 843c 1489 213d 2c8d 7238 8d35 083d
00000070: 9242 b83d 1362 d83d 6cd6 9881 e481 0e3e
00000080: f8d8 da3a e537 b63d 8b2b a93d 3474 3e00
00000090: 489c 6980 0114 da00 26ee e33d 9c4e a33d
000000a0: 4903 da3d cfc5 d33d 6c23 513c 4545 c13d
000000b0: 1896 5880 bc5f 3b01 1893 4881 015c fc3d
000000c0: 5bc7 983d 4349 dc3d 9da9 9d3d a05c 7a3c
000000d0: 308e 033d 443a 2581 b4a8 1b81 ecc2 1f3d
000000e0: 1679 a53d 95bd 9901 8ba2 b13d 5c48 8281
000000f0: 8cd6 25bd 4c9d df3d fc63 9180 d0aa a03d
00000100: 7f4e 9b3d 4430 2325 ddf9 083d c7c0 333d
00000110: 6c23 db3d 80f5 4e80 a7a7 09bd 2011 3a81
00000120: b345 ca3d 9529 373d 38ed b33d 9466 2d3d
00000130: 2850 9101 1ac7 943d 1e38 8d81 886c 9c3d
00000140: 4e47 4b00 aaa5 ac81 8cf6 5880 8446 5981
00000150: b97c c13d 01ce af3d 6f57 da3d 1eda 9c3d
00000160: 4411 873d cc72 8980 53eb d33d c925 003e
00000170: 32bb 853d e912 8501 8b70 313d e2dd f23d
00000180: 9b86 7301 230e 803d 34f2 0980 4259 2d3d
00000190: dade ca3d b536 cd3d a8f1 3b80 402c 023e
000001a0: 3589 903d 60d4 fd3c 1930 3b81 809a b63d
000001b0: ebaf 1d3d 8ac9 673d 5831 5b81 c0fc c180
000001c0: fc33 5981 2514 d03d fe57 4a3d e549 0401
000001d0: f8b4 183d f49b ad01 1973 e33d df56 433c
000001e0: 0ec8 a43d 7001 7700 71a2 363d 8d58 753d
000001f0: 40b7 0c3d 2c8d f23d 70fc 873d 0003 a400
00000200: 6f70 443d f490 2d01 21ea 6dbd 5357 0481
00000210: 16cd a83c 3dc3 5c3c 36b9 1581 24a0 0a00
00000220: aa7f 943d ead0 e93d feab 143e ffa0 ad3d
00000230: 24c2 1901 0c88 c43d 75bd f2b3 2753 123c
00000240: 342a 9401 7bfa b83d fc39 f400 132d 933d
00000250: 8038 dd00 9227 873d 527b 9000 c39e 0e01
00000260: dad2 ed3c 8f58 2c3d 9002 3038 f2af 7cbc
00000270: a45d af3d e111 de3d 08c8 3a00 c565 0b3e
00000280: 76c6 28bc a2d3 073d 5352 eb3d 7cb6 9181
00000290: 38ac 2581 2011 9901 247f e73d 4424 d83d
000002a0: af4b cb3d 7b32 d93d fe3b 833c cfcc be3d
000002b0: 0889 6081 f862 7800 cec6 5f00 f8a4 b13d
000002c0: 040d 8d3d f82a e23d 273f 533d de32 e3bc
000002d0: 640f a7bc 1489 9600 8862 3581 f294 c13c
000002e0: c82e 923d 3438 3d81 1068 a23d e012 ca00
000002f0: 48db 77bd 4956 9b3d b00c 3201 5d20 993d
00000300: 496a b03d e69c 8ea1 5c19 223d eaa8 813d
00000310: 3701 e13d e8b2 e600 3ad0 093c c8d8 6b00
00000320: 70ae cc3d c623 6b3d f6da c53d fee2 393b
00000330: a01e ac80 e5df 893d d47d 7100 a046 433d
00000340: 604c 8b01 1f33 9980 9353 6881 3102 8681
00000350: fcf8 e93d 0601 a73d 0c71 d93d f0d3 eb3d
00000360: 124f 923d 1c5d af80 99bd 263d 4490 a53d
00000370: 0b80 80bc 2ea4 2c01 711c e33c 0917 f83d
00000380: 5425 5700 5a00 0d3d ca7b 9001 6d40 963d
00000390: b513 e63d 1b6b b53d e08d a900 2b4e 013e
000003a0: 4463 833d 673b 553d c862 c600 7754 3e3d
000003b0: 0aff 073c bb4e 713d 8478 0901 6f95 8e81
000003c0: 2c5b a901 2b92 353d 32c8 d03d 7bfb d380
000003d0: b70c ebbc 5058 2d01 e820 f33d 25a6 3dbc
000003e0: bbf8 ab3d acad 0601 f949 e1bb cca2 5a3d
000003f0: c8d9 523d 7d76 f73d db91 793d 0c42 e400
0.082812384 -5.131683e-38 -0.009737612 -3.5923082e-38 0.0069539496 0.036289264 2.6388006e-38 -3.16213e-38
0.05540693 0.10103334 0.13982508 0.10007639 -7.687421e-39 0.098236844 -2.594729e-07 0.0017771733
2.426088e-38 0.093295135 -5.071379e-38 0.07754917 3.681794e-39 0.030314509 1.0914526e-38 -2.9108638e-38
0.016149273 0.03943737 5.7828773e-05 0.033254195 0.08997072 0.10565581 -5.614366e-38 0.13916737
0.0016696742 0.0889738 0.08260258 5.735487e-39 -9.69879e-39 2.0027314e-38 0.111294076 0.07973978
0.10645158 0.10340463 0.012764793 0.0943704 -8.135367e-39 3.4415162e-38 -3.6839733e-38 0.12322236
0.07459899 0.10756161 0.07698367 0.015280873 0.032118022 -3.0347517e-38 -2.8590042e-38 0.03900425
0.08079736 5.647536e-38 0.08673581 -4.785829e-38 -0.04048781 0.10918674 -1.3352015e-38 0.0784508
0.07583331 1.415435e-16 0.033441413 0.04388502 0.107001156 -7.251238e-39 -0.03360715 -3.417509e-38
0.09876575 0.04471739 0.0878548 0.042334154 5.3379606e-38 0.07264538 -5.1875744e-38 0.07637888
6.913242e-39 -6.342054e-38 -8.169968e-39 -3.9907198e-38 0.09447617 0.08584214 0.10661208 0.0765879
0.0659509 -1.2622644e-38 0.10347619 0.12514414 0.06529845 4.888362e-38 0.04332022 0.11858727
4.4728626e-38 0.06252696 -9.13406e-40 0.04232145 0.09905787 0.100202 -5.504984e-39 0.12712193
0.0705742 0.030985057 -3.4380984e-38 0.08916187 0.038497847 0.056588687 -4.025935e-38 -1.781492e-38
-3.9893902e-38 0.10160092 0.049400322 2.4297588e-38 0.03728196 6.3773945e-38 0.111059375 0.011922567
0.0804597 1.092894e-38 0.04458851 0.0598989 0.03435445 0.11843333 0.066399455 1.5062098e-38
0.047958788 3.187908e-38 -0.05808461 -2.4307223e-38 0.020605605 0.013474283 -2.749986e-38 9.75803e-40
0.072509125 0.114168 0.14518735 0.08477973 2.824095e-38 0.095962614 -1.1303465e-07 0.008930958
5.442717e-38 0.0903215 2.2428662e-38 0.071863316 2.0315913e-38 0.06599344 1.326855e-38 2.6195187e-38
0.029031206 0.042076644 4.1964056e-05 -0.015422808 0.085627824 0.10843254 5.398216e-39 0.13613041
-0.010301223 0.033160813 0.114903115 -5.352644e-38 -3.0429275e-38 5.6227897e-38 0.11303547 0.10553792
0.09926545 0.106053315 0.016019817 0.09316408 -4.1240617e-38 1.1055763e-38 8.79569e-39 0.086740434
0.06887248 0.11043352 0.0515739 -0.027734216 -0.020393081 1.3824499e-38 -3.3315142e-38 0.023630593
0.07137829 -3.475414e-38 0.079300046 1.8557541e-38 -0.060511857 0.07584817 3.270254e-38 0.07476876
0.08614022 -9.663825e-19 0.039574966 0.06331046 0.1098656 2.1186344e-38 0.0084114615 9.904165e-39
0.09994209 0.057407163 0.09660904 0.0028364058 -1.5806692e-38 0.067321576 1.042255e-38 0.047674775
5.117013e-38 -1.406917e-38 -4.2671632e-38 -4.922697e-38 0.11424443 0.08154492 0.10617265 0.11515033
0.07143988 -1.6104613e-38 0.04070816 0.08084157 -0.015686056 3.1709204e-38 0.027723523 0.121137686
8.003079e-39 0.034424163 5.3074874e-38 0.07336507 0.112342276 0.08858319 1.5571094e-38 0.12627475
0.06415418 0.052058604 1.8218864e-38 0.04646727 0.008300552 0.058912974 2.5249392e-38 -5.237699e-38
6.221162e-38 0.04432885 0.10194434 -1.9467504e-38 -0.028692586 3.1838443e-38 0.11871511 -0.0115752565
0.08397051 2.4736516e-38 -0.0068752733 0.05337791 0.051477224 0.12083147 0.060930114 2.0962186e-38

layers.2.bias f4 [64]
00000000: 8356 3abd 8a7d 56bd 569d 2dbd ebb8 3fbd
00000010: da2f a3bd 90f9 1ebd 19ee 31a2 7811 0801
00000020: 380c 2abd 010f 4dbd 9c9a f93d e95f 1dbd
00000030: 638e 27bd 54e7 43bd ec99 3480 0e22 bd80
00000040: d6bf 5981 6300 9201 e104 d2bd 3728 1ebd
00000050: 5045 5900 5f1f 29bd bd21 66bd 4d74 68bd
00000060: 99b0 83bd 8812 6881 a101 12bd f352 48bd
00000070: aa51 40bd 0028 9480 7877 34bd dc81 8601
00000080: 97da c03d fc70 9c80 95e3 8abd f9d6 a880
00000090: 88c9 583d e927 013e f9f7 9d3d 19a3 4cbd
000000a0: cd89 53bd 74aa 4ebd 64b1 1cbd 1223 0181
000000b0: f4b6 24bd e5a9 2180 ecf1 8681 ac5d ed1b
000000c0: c056 57bd d619 423e fade 47bd 1a9f 30bd
000000d0: 9b14 8101 b9a1 a580 ebdf 4dbd a408 3abd
000000e0: 0061 7981 1e5d 59bd 34a7 32bd fbdd 3fbd
000000f0: ee97 33bd 9420 5fbd 6c21 7000 48d1 3bbd
-0.04549266 -0.052365817 -0.042386375 -0.04680721 -0.07968111 -0.03881222 -2.411402e-18 2.4991788e-38
-0.04151556 -0.050063137 0.121876925 -0.038421545 -0.040907275 -0.047828034 -4.830663e-39 -1.7369125e-38
-3.999424e-38 5.3632485e-38 -0.10254837 -0.03861257 8.198224e-39 -0.041289683 -0.05618452 -0.056751538
-0.06430168 -4.2624966e-38 -0.035646085 -0.04890723 -0.04695288 -1.3606003e-38 -0.044059247 4.9410165e-38
0.09416693 -1.4366869e-38 -0.06781689 -1.5505481e-38 0.05292657 0.12612881 0.07713313 -0.04996023
-0.05164509 -0.050455526 -0.03825511 -2.371872e-38 -0.04021354 -3.091518e-39 -4.9570967e-38 3.9268895e-22
-0.052572966 0.18955168 -0.04879663 -0.04312048 4.7416683e-38 -1.5210872e-38 -0.050262373 -0.045418397
-4.580367e-38 -0.05306732 -0.04361649 -0.046842556 -0.043846063 -0.05447443 1.0297565e-38 -0.045853883

layers.4.weight f4 [32, 64]
00000000: 7da0 2e39 fe4b 2fb8 2826 67b9 83e6 93b8
00000010: 059f 79b7 8135 a039 9aef 1300 692b 0380
00000020: b3b7 4ab9 f0c8 55b8 d9fb 9730 8b2b abb9
00000030: 2dc7 cbb9 5f05 d4b7 390e 8100 ba4f b281
00000040: 6a1a 9800 c540 8600 56e7 c3b7 bf8b 8fb8
00000050: b352 4e00 0e54 8a39 2749 8cb8 8e4f 2bb8
00000060: e1e1 f3b7 7f61 0d80 be50 3f3a b1bd 7cb9
00000070: ba52 66b8 42f7 7881 9eed ffb9 87a3 9681
00000080: 549c d728 7120 0101 277c cbb7 07a4 0800
00000090: 2385 a300 ac25 1031 6299 1c23 8f1b 5fb8
000000a0: 8866 6539 5c40 d0b8 9877 81b9 7178 2e80
000000b0: 4ddd 70ba 5748 0880 7829 2f80 32ea 7000
000000c0: 38b6 33b8 f685 fd34 5910 693a 7f65 9cb9
000000d0: 98ea 2600 6807 b401 0232 e539 ae08 1eb9
000000e0: 3080 6e81 f3a5 46b8 fff1 16b9 9879 97b8
000000f0: d975 81b9 2f0e c9b8 d064 4b80 46c3 a2b8
00000100: a2da 0e3e b253 a03d 8f6f d03d dcd5 993d
00000110: ceba 8f3d 81e7 d03d 7a4b 9a38 a615 2b80
00000120: 4cf3 093e ea8a 9c3d 0bbc 6fbe 9184 173d
00000130: 9931 743d cd71 5c3d 9b51 6980 ed74 3c01
00000140: 5658 1e00 b692 3001 4029 1b3e 67b5 1f3e
00000150: a765 9e81 5066 ab3d e28f 013e 291c 903d
00000160: 4abe 8b3d 0439 9081 b756 0c3e 4bb3 8d3d
00000170: cd06 8a3d 9c6e 6d80 a458 7b3d 7871 7781
00000180: 6e50 95be 6295 2381 c883 8a3d 7a46 7b80
00000190: b189 21be fce9 62be 0204 93be 0cfa 993d
000001a0: 48b5 253e 542c 0c3e 2db9 fe3d 7b93 e800
000001b0: 3f56 c33d ce9f d534 45fe 1f00 62ef 66b7
000001c0: 834e 1f3d 0b66 61be 76cf 6fbc 10ff 0a3e
000001d0: b8d4 2981 4b79 0881 b213 243e e950 b93d
000001e0: f285 2b01 cfbc dd3d 6ea2 b23d cec5 963d
000001f0: 86b9 223d 5cf4 cc3d 1634 7e81 8267 ef3d
00000200: 2aa7 643d 5ae1 773d 3e21 5f3d fc1d 713d
00000210: 6d37 9c3d 5c73 4d3d 1a48 5d38 ceee 7a81
00000220: 2a1b 573d 5541 723d d1ab 6dbe 6d90 503d
00000230: 62f8 5b3d 54b6 713d 2a71 b800 7128 5580
00000240: ad5b 2f80 a0da 4081 d386 1d3e ab78 483d
00000250: c5d3 9d01 0cbd 573d 2ae9 853d 4201 823d
00000260: 965a 8a3d eb71 5381 df4b 473d 3877 653d
00000270: 6676 753d a268 6601 4fd2 5a3d 506a 8180
00000280: f7eb 8bbe 9e9c a600 a6ad 8e3d 74f2 da80
00000290: ced4 21be 81d2 69be 4c00 96be f09b 753d
000002a0: db5d 6b3d 33f9 7e3d e8d0 5f3d dd13 ba80
000002b0: 90b0 553d 395b 2030 0a22 5901 6d35 06b5
000002c0: ceda 653d c1a1 73be 116d 563d 58b8 653d
000002d0: e311 f580 26ac a000 46d8 5b3d 44f5 643d
000002e0: 07b2 cc80 a934 763d 88ff 623d c1d3 713d
000002f0: 3c64 613d 8fd5 7d3d 020e 1281 d814 783d
00000300: 5dbe a53d 3978 a73d 3e51 a13d 03a9 a03d
00000310: 6ee7 943d af07 aa3d f502 8d38 21c9 9f80
00000320: ccdf 9d3d c24b a53d 2dd8 6abe 0aa1 a53d
00000330: 67e9 a33d d6e2 a43d 1b48 9f01 7d6e 2201
00000340: ba45 ef00 b198 ab81 1bb5 1b3e bb84 a63d
00000350: 803f 9780 4777 a53d 1e92 b23d b8c2 933d
00000360: 6a88 8f3d 641c 4401 5fae a73d a1fa a43d
00000370: 0019 a93d e4be ad00 fa49 a33d d02c 6b00
00000380: 2548 8abe 8bd7 8c01 6277 8e3d d099 1501
00000390: 7390 21be 4fc9 66be 40c9 94be b679 a73d
000003a0: b0b6 a83d 3901 a93d 3cf1 a43d 92f4 e780
000003b0: 0748 ac3d 5a51 6b32 9625 9700 18d6 24b6
000003c0: 29b0 a13d 7c2b 6ebe 6063 a63d ce29 a53d
000003d0: 8815 4701 1285 9701 68fa a73d b449 9f3d
000003e0: 9ced 9201 b958 a53d cfd0 a03d cbb9 a43d
000003f0: d150 a33d 2a44 ab3d 7a33 8000 ed4e aa3d
0.0001665372 -4.1794025e-05 -0.00022044091 -7.0524424e-05 -1.4878581e-05 0.00030557442 1.830827e-39 -2.91079e-40
-0.00019332654 -5.0970295e-05 1.1058275e-09 -0.00032648104 -0.00038867575 -2.527487e-05 1.1851881e-38 -6.5501275e-38
1.3968471e-38 1.2329191e-38 -2.3353536e-05 -6.844801e-05 7.192836e-39 0.00026384037 -6.689346e-05 -4.0843668e-05
-2.907304e-05 -1.228836e-39 0.00072981033 -0.00024103258 -5.491332e-05 -4.5727805e-38 -0.0004881443 -5.533595e-38
2.3937592e-14 2.3716834e-38 -2.4257299e-05 7.93526e-40 1.5016946e-38 2.0976172e-09 8.489257e-18 -5.319301e-05
0.00021877338 -9.930201e-05 -0.00024693902 -4.267639e-39 -0.000918825 -7.60635e-40 -4.331145e-39 1.0369589e-38
-4.284663e-05 4.7222392e-07 0.00088906806 -0.0002983026 3.573905e-39 6.6132185e-38 0.00043715542 -0.00015071288
-4.3805666e-38 -4.736143e-05 -0.00014395265 -7.22289e-05 -0.000246926 -9.587069e-05 -6.923827e-39 -7.7611345e-05
0.1395059 0.078284636 0.10177528 0.075114936 0.07018052 0.10200406 7.357351e-05 -3.956692e-39
0.13471717 0.07643683 -0.23411576 0.03699166 0.059617613 0.053819466 -9.672002e-39 3.4614037e-38
2.786754e-39 3.2431355e-38 0.15152454 0.15596543 -5.81859e-38 0.08369124 0.12652543 0.07036621
0.06823404 -5.297906e-38 0.13704954 0.06918963 0.067395784 -1.0049748e-38 0.06136383 -4.5448145e-38
-0.29162925 -3.004555e-38 0.067634165 -1.1321048e-38 -0.15775181 -0.2215957 -0.28713995 0.07518396
0.16182435 0.13688785 0.12437663 2.1358741e-38 0.095379345 3.9790615e-07 2.938115e-39 -1.3764804e-05
0.038893234 -0.22011583 -0.014636865 0.13573861 -3.1193016e-38 -2.5066278e-38 0.16023138 0.090486355
3.150384e-38 0.10827028 0.08722387 0.07361947 0.03972771 0.10007545 -4.6689802e-38 0.116896644
0.055823483 0.060517646 0.05447506 0.058866486 0.07627759 0.050158843 5.2757656e-05 -4.6089082e-38
0.05251614 0.059144337 -0.23210074 0.050918985 0.053703673 0.059011772 1.6938327e-38 -7.820525e-39
-4.349155e-39 -3.5421686e-38 0.15383463 0.048943203 5.7976566e-38 0.052670524 0.06538613 0.06347896
0.06755559 -3.8836312e-38 0.04865634 0.0560219 0.059927367 4.2319399e-38 0.053423222 -1.1884917e-38
-0.27328464 1.5300876e-38 0.069667146 -2.0107114e-38 -0.15803835 -0.22834207 -0.29297101 0.059963167
0.057462554 0.062249374 0.054642588 -1.7088528e-38 0.052170336 5.8337296e-10 3.9881027e-38 -4.9996635e-07
0.05611687 -0.23792173 0.052350108 0.056084007 -2.2506113e-38 1.4755435e-38 0.05367305 0.055897966
-1.8798305e-38 0.060108814 0.055419475 0.059039835 0.05502723 0.061971243 -2.6826015e-38 0.060566753
0.080929495 0.081772275 0.07876824 0.078447364 0.07270704 0.08302247 6.723955e-05 -1.4673995e-38
0.077087015 0.0807109 -0.22934027 0.080873564 0.08003502 0.08051078 5.851084e-38 2.9833972e-38
2.1973697e-38 -6.303458e-38 0.15205805 0.08130785 -1.388994e-38 0.08079391 0.08719276 0.07214874
0.07008441 3.6019884e-38 0.081875555 0.08055616 0.082567215 1.595602e-38 0.07973094 9.842474e-39
-0.27008167 5.1737167e-38 0.06956364 2.7477333e-38 -0.15777759 -0.2253773 -0.29059792 0.081775114
0.0823797 0.08252186 0.08053824 -2.1301735e-38 0.084121756 1.36972975e-08 1.3880643e-38 -2.4562523e-06
0.07894928 -0.23258775 0.08124423 0.08064614 3.6565975e-38 5.5659586e-38 0.08202058 0.0777773
5.397288e-38 0.08073563 0.07852327 0.0804325 0.07974399 0.08362611 1.177341e-38 0.08315835

layers.4.bias f4 [32]
00000000: 09e9 d815 8ca7 44bd 878d 80bd 3bba 09bd
00000010: 722c 6abd 58fb fbbc b23b 9c01 a475 a6bd
00000020: 0de8 ec80 a757 74bc 6e5a ee80 105d f53c
00000030: 9331 34bd dbe2 0100 7ee7 bfbd f7f7 f0bc
00000040: 9ce7 ec00 68c1 10bd 3dd9 e3bc a413 353c
00000050: e5ed 46bd 2059 0cbd 94ec 72b9 8267 1abd
00000060: ac86 133d 813b 9ebd 87e5 8200 107c 7bbd
00000070: 283b 163e 3992 f83c 7ed2 743c 8fc6 8d3b
8.760937e-26 -0.048011348 -0.06276994 -0.03362487 -0.057171293 -0.030759498 5.739101e-38 -0.08127907
-2.1756421e-38 -0.014913476 -2.1889288e-38 0.029951602 -0.04399259 1.73216e-40 -0.093703255 -0.029415114
2.1756263e-38 -0.035340697 -0.027813548 0.011052046 -0.048566718 -0.034264684 -0.0002316705 -0.03769637
0.036017105 -0.07726193 1.2020953e-38 -0.061397612 0.14671004 0.030343162 0.014942763 0.0043266485

layers.6.weight f4 [8, 32]
00000000: c686 cdb3 3bda e53d a1b0 963d c993 923d
00000010: 4318 073e b87c cb3d 4f39 4780 55ad 8d3d
00000020: ee93 8d81 342a 023e 3c8a 4901 14e1 49bd
00000030: da73 183e ed6d f580 6565 e83d a4ef 5f3c
00000040: 9f71 ec35 2771 943d 3da5 4c3e 800b b23d
00000050: 0ffe a13d 09a7 933d 5d99 c639 7c30 953d
00000060: 8e73 a3bd 52e0 90bc 82ef 3f01 40c1 48bc
00000070: 5d1a 84be 017f 85bd 1215 77bd 4748 b03a
00000080: 59d2 9638 9f5e 083e dec5 913d 7f00 bd3d
00000090: 6b8e 603d 2ea0 be3d a0a8 3080 915c 893d
000000a0: c069 8000 8af2 c43d 844a 9f81 aac9 50bd
000000b0: c659 b03d 9117 7900 1edc a23d 324c c03d
000000c0: e5b2 cf36 dc73 ba3d 3dc8 103e efb3 af3d
000000d0: 43c6 ba3d c920 bc3d dc39 a439 83a6 ba3d
000000e0: 406d a3bd 8028 ba3d d973 8080 2bad cd3d
000000f0: 55b0 83be bee3 39bd be76 973d eb35 993d
00000100: 5649 9aba f844 673e 5592 903d 54a4 cd3d
00000110: b804 33bd 1fcf e73d c222 8481 73a9 883d
00000120: 1402 5d81 5ac2 263e 220c 1f81 6529 4abd
00000130: cb5a ab3b 7858 8b01 5a14 c33d 849f 4c3e
00000140: 81c6 52b8 b758 b03d d708 0e3e e694 433e
00000150: 0bbd 803b c865 be3d 3211 a939 18b6 b23d
00000160: e519 a3bd 0203 353e 72d2 9d81 92e6 373e
00000170: 0606 88be 6209 d3bd 423d 453e 85cb 0e3e
00000180: db0d f6b9 678d f63c 4ebd 913d 3b66 803d
00000190: ef81 623e a01e 083e 45f9 f500 965a 893d
000001a0: b30d 3200 02e5 403d 039a 2a80 669e 50bd
000001b0: 3309 ed3d df56 2380 e169 a13d bea5 023d
000001c0: cb3d f836 bfe8 b03d bf0c 123c 1258 f83d
000001d0: c291 cd3d c193 ab3d fdc5 a239 7e15 b13d
000001e0: 2a6e a3bd 228f db3d 205b 5f01 7cc3 b13d
000001f0: 1da9 83be 6567 52bd ed38 a73d 1008 0c3e
00000200: d243 a338 fd41 c73d b4c2 913d d0e0 bd3d
00000210: 324e c33d 3688 c03d 8f59 8181 675a 893d
00000220: 1d5a 8501 586b bf3d 4eae a101 1bc2 52bd
00000230: 34e2 c13d c06d 6181 a8d4 a23d 1408 c23d
00000240: 2548 ce36 60a8 b83d 8aa0 c63d d186 c93d
00000250: c08d bf3d 64f3 ba3d 5360 a439 2530 b93d
00000260: ad6e a3bd 3f57 c63d 5026 5881 c17f a43d
00000270: a3af 83be bff2 22bd 0250 c93d f8d7 c83d
00000280: 37c6 8137 2e79 143e 4cd6 943d 90ee 943d
00000290: 5366 d53b 4b68 c93d f797 ce80 9cee 8b3d
000002a0: 3fb8 3a80 1a88 133e 0475 a600 9541 51bd
000002b0: 32d0 c63c e880 6f80 40bf 033e 9964 103e
000002c0: 17af c035 78e8 9f3d c5b2 a63d c5fa 80bd
000002d0: 7e85 393e 9bbd 9c3d ffbd bd39 96e7 a03d
000002e0: 98ae a5bd 6f60 943d 077a 0a81 146f 1b3e
000002f0: 1543 85be 2f95 64bd 9890 fc3c 96e2 f73d
00000300: d261 3681 ca8d 6e01 638f 0100 5462 6781
00000310: 98d8 7380 90c7 1200 c063 4b00 376f 7a00
00000320: 5e95 4181 ce6c a481 f0ac ad81 c8bc 1100
00000330: 88fa bc80 d3fd 5000 4a2c 8301 3ac2 8581
00000340: f063 4a00 80ff 7e81 606a 6100 0ed6 6b81
00000350: d242 1a01 7146 2281 7208 4281 7845 e680
00000360: 840c ab80 6820 2681 6488 cb80 48a7 c980
00000370: c95a 8180 22d6 5980 42ba 8c80 06bc 6481
00000380: a32a a53a 5646 a73d 24a7 903d 1abd ea3d
00000390: c745 213e 6333 033e 7a6a 3f81 14cd 883d
000003a0: 1254 6b81 ce5c 243e 8ede 3301 62a5 8ebd
000003b0: 0de6 323e f216 5581 a36c 9f3d 53fb 383d
000003c0: c2fa edb8 d335 b43d f06e 1f3e 0138 da3d
000003d0: 9312 4f3e 40ac c83d 823e aa39 d58a b23d
000003e0: 4180 adbd 8440 5a3e 63b4 1400 6e23 b1bc
000003f0: 2788 83be faec 0abd a162 4a3e dd3a 7a3e
-9.5705715e-08 0.11223265 0.07357908 0.07157094 0.13192849 0.099358976 -6.540879e-39 0.06917826
-5.200749e-38 0.12711412 3.7017048e-38 -0.049286917 0.14887944 -2.253913e-38 0.113474645 0.013667975
1.7616438e-06 0.072481446 0.19984908 0.086936 0.07909786 0.07209594 0.00037879767 0.07284638
-0.07981025 -0.01768509 3.5252998e-38 -0.012253106 -0.25801364 -0.06518365 -0.06032283 0.0013449275
7.191738e-05 0.13317345 0.07117818 0.0922861 0.05482332 0.093078956 -4.468595e-39 0.06707109
1.179288e-38 0.09616573 -5.85143e-38 -0.05097357 0.08610873 1.1120549e-38 0.0795214 0.09389533
6.189907e-06 0.0910413 0.14138885 0.085792415 0.09119847 0.09185941 0.00031323626 0.09113791
-0.07979822 0.09089756 -1.1796502e-38 0.10042795 -0.25720468 -0.045383207 0.07395695 0.07480987
-0.0011771123 0.22584903 0.070591606 0.10041109 -0.043705672 0.11318802 -4.8539017e-38 0.06672945
-4.059278e-38 0.16285077 -2.9212393e-38 -0.049355883 0.005229329 5.118748e-38 0.09525366 0.19982725
-5.0252773e-05 0.08610671 0.1387056 0.19099769 0.0039287857 0.09296757 0.00032247003 0.08726138
-0.07963923 0.17676929 -5.7974666e-38 0.1795905 -0.26567096 -0.10304524 0.19261649 0.13944824
-0.000469311 0.030096723 0.07116185 0.06269499 0.22119878 0.13292933 2.2589118e-38 0.06706731
4.596689e-39 0.0470934 -3.91234e-39 -0.05093231 0.1157402 -3.245406e-39 0.07881523 0.031896345
7.3981696e-06 0.08638143 0.008914172 0.12126173 0.10037567 0.08377791 0.0003104656 0.086466774
-0.079799965 0.1072066 4.102401e-38 0.08679864 -0.2571496 -0.051368136 0.081651546 0.1367495
7.785078e-05 0.09729383 0.07117215 0.09271395 0.09536399 0.0940098 -4.7515626e-38 0.06706696
4.898579e-38 0.09346646 5.9392174e-38 -0.051454645 0.09466973 -4.1404715e-38 0.07950717 0.09474197
6.147677e-06 0.0901649 0.09698589 0.09840167 0.093532085 0.09128454 0.00031352285 0.09042386
-0.07980094 0.096846096 -3.9700422e-38 0.080321796 -0.25719938 -0.039782282 0.098297134 0.09806818
1.54703e-05 0.14499351 0.072674364 0.07272065 0.006512442 0.098343454 -1.8972627e-38 0.068326205
-5.392554e-39 0.14407387 1.528667e-38 -0.051087935 0.024269197 -1.0239983e-38 0.12865925 0.14100875
1.4356073e-06 0.07808012 0.08139566 -0.062978305 0.1811733 0.07653352 0.00036190447 0.078566715
-0.08089942 0.07244956 -2.5434147e-38 0.15179092 -0.26027742 -0.055806335 0.030830666 0.12103765
-3.3498303e-38 4.3815425e-38 1.43273e-40 -4.2498546e-38 -1.0638781e-38 1.724628e-39 6.923446e-39 1.1243827e-38
-3.5555667e-38 -6.040021e-38 -6.3798316e-38 1.628925e-39 -1.7354947e-38 7.437895e-39 4.818535e-38 -4.9135185e-38
6.831678e-39 -4.6835744e-38 8.946203e-39 -4.331626e-38 2.8333274e-38 -2.980524e-38 -3.5638232e-38 -2.1147085e-38
-1.570836e-38 -3.0512635e-38 -1.8691533e-38 -1.8518944e-38 -1.1879347e-38 -8.250176e-39 -1.2923786e-38 -4.2011886e-38
0.0012601208 0.081677124 0.070631295 0.114618495 0.15749274 0.12812571 -3.5157553e-38 0.066797405
-4.3223e-38 0.16051027 3.3036783e-38 -0.06965138 0.1747057 -3.9138384e-38 0.07784393 0.045161556
-0.00011347748 0.08799329 0.15569663 0.10655213 0.20221929 0.09798479 0.000324715 0.08717886
-0.08471728 0.21313673 1.90142e-39 -0.02162334 -0.25689813 -0.033917405 0.19764186 0.24436517

layers.6.bias f4 [8]
00000000: 8761 da3c da42 d6bc 660a 753d 7779 a63d
00000010: 9b96 67bc 19d7 00bd 42cf 0200 c081 823a
0.026657833 -0.026154924 0.05982437 0.08128636 -0.014135028 -0.031455133 2.58021e-40 0.0009956881

layers.8.weight f4 [4, 8]
00000000: 4631 75bd b4a6 28bc 3e66 713e c552 963d
00000010: 4ac6 27bc e1a9 ee3c 1c77 b780 3333 77be
00000020: 89cc 0400 91c2 7500 d997 5bbd ce37 5f33
00000030: fdd9 a295 d22d f632 9ebc b281 ab40 d33a
00000040: ec55 9a3d 1171 bf3d 64d8 b93d 6426 c13d
00000050: 1d44 bf3d 685f a33d 7e2b 8280 2f81 b83d
00000060: 2d77 5532 9569 4800 21de 363c 720c 38a9
00000070: 4a3c 9700 50f0 6680 9005 8e81 263c 71bd
-0.059861444 -0.010293651 0.23574159 0.07340006 -0.010240147 0.029133739 -1.6848624e-38 -0.24140625
4.40715e-40 1.081455e-38 -0.05361161 5.1971988e-08 -6.5775204e-26 2.8659006e-08 -6.5657526e-38 0.0016117295
0.075359195 0.093477376 0.09074476 0.094311506 0.093391635 0.07977182 -1.1954217e-38 0.09009015
1.2425329e-08 6.650031e-39 0.011161358 -4.0867002e-14 1.3888788e-38 -9.453428e-39 -5.2170544e-38 -0.058895253

layers.8.bias f4 [4]
00000000: 241d debd 08a5 d33b dacf 1bbc f31e a23b
-0.10845402 0.0064588822 -0.009510005 0.004947537

layers.10.weight f4 [1, 4]
00000000: 660a 36b8 96dc 04ba de4d be3d 7063 12ba
-4.3401866e-05 -0.000506827 0.09292196 -0.00055842753
