[EE5184]Machine Learning/hw/hw1/models/model1.ckpt (torch, 2775 bytes, 5 tensors)

layers.0.weight f4 [5, 24]
000000 28 42 06 be 8e 0f 7d 3e 91 ee c4 bd 98 9e 9f 3c
       -0.13111174 0.24712965 -0.096158154 0.019484803
000010 c9 a8 ff bd 9d a8 70 be 7f ac e2 3d 07 26 f1 bb
       -0.12483365 -0.23501821 0.11068057 -0.0073592695
000020 43 72 59 3d 27 ed 94 3c 3e d4 29 3e 39 fc 41 bd
       0.053087484 0.01817949 0.1658487 -0.04735968
000030 6f ab cc be fa 6b 77 be 1b a3 ee 3d 09 6a 2f 3d
       -0.39974543 -0.24162284 0.11652204 0.042825732
000040 7f cc 0e be e7 48 0e be ac 24 8b be 37 6f f1 3d
       -0.13945197 -0.13894998 -0.27176416 0.11788791
000050 16 c1 cc 3e dc 28 a5 3e 36 66 95 3d 2c e1 32 3e
       0.39991063 0.32257736 0.07294886 0.17468709
000060 20 24 48 3e 3a e6 91 bd 42 c9 34 3e 88 40 30 3e
       0.1954503 -0.0712399 0.17654899 0.17212117
000070 f0 ce 34 3d 58 32 a8 bc 68 dc ac 3d 50 5d 8b 3d
       0.044142663 -0.020531818 0.08440477 0.06804907
000080 2c 20 3e bd 64 f2 8a bd bb 9c 14 be 5c cd 10 3d
       -0.0464174 -0.067845136 -0.14512913 0.035352096
000090 b4 48 3a 3e ee 29 b8 bd a0 51 04 be 70 08 81 3d
       0.18191797 -0.089923725 -0.12921762 0.063004375
0000a0 74 56 42 be 74 68 04 bd 65 06 43 be 80 4e c7 bb
       -0.18978292 -0.032326177 -0.19045408 -0.006082356
0000b0 40 54 19 bb f9 f8 d5 bd a0 e6 90 bb f8 78 b2 3c
       -0.0023396164 -0.104478784 -0.004422024 0.021786198
0000c0 ae 0f 35 bc b4 30 20 3d 2b f0 2b 3e d9 70 e4 3d
       -0.011051102 0.039108947 0.16790836 0.111543365
0000d0 33 6f 26 bd 71 f1 d8 bd 8b 9c 11 3e 2a 46 8f bd
       -0.04063339 -0.10592926 0.14219873 -0.069958046
0000e0 14 d9 0d 3d c9 a4 a9 3d 7d ec 9c bc f9 39 b2 be
       0.03463085 0.082833834 -0.019155735 -0.34809855
0000f0 b1 f4 9b be 0a ca 84 3d a5 86 a1 3c 4c 04 47 be
       -0.30460122 0.064838484 0.019717524 -0.19435233
000100 0f e1 e7 be b0 6f 00 bf 01 76 4b be dc 97 59 3c
       -0.45288894 -0.5017042 -0.19869234 0.013280835
000110 99 96 0a 3f bc 43 08 3f 0b d5 a7 3e cd 63 23 3e
       0.54136044 0.53228354 0.32779726 0.1595604
000120 9c 8a 28 bf fd 82 8c 3d 46 86 7a 3d 30 7d 8b be
       -0.658365 0.068609215 0.06116321 -0.27243948
000130 75 93 c3 bd 8f 0d 39 3d 60 6c 11 3e 0f 60 06 bd
       -0.095496096 0.045178946 0.14201498 -0.032806452
000140 96 95 9c bd e6 e0 ad bd 5b f1 55 bd d7 94 d9 bd
       -0.07645719 -0.084901616 -0.052232128 -0.10624092
000150 04 8b 86 be 85 6a 20 3d 2d 20 cb 3d f9 f0 80 3c
       -0.26277936 0.039164085 0.099182464 0.015739905
000160 68 d9 7c be 98 78 48 be a8 03 73 bc d9 54 88 3d
       -0.24692309 -0.19577253 -0.014832415 0.066568084
000170 87 6a 07 3f 6d f3 02 3f 0b d1 0c 3f 25 82 98 3d
       0.5289692 0.5115269 0.55006474 0.07446698
000180 67 fc 27 3e 51 d8 d3 3e bd 21 66 3d 73 dc 5b bd
       0.16404878 0.41375974 0.05618452 -0.053677034
000190 5b 78 5a 3d 91 e1 39 bd bb b6 04 3e 62 61 52 3e
       0.053337436 -0.045381133 0.12960331 0.20544961
0001a0 0b 9c 30 bd 6a fb 85 3d d3 d6 62 3d 86 55 d1 be
       -0.043117564 0.06542094 0.055380654 -0.40885562
0001b0 ca 3f 5d be 36 9d 81 bc 51 1b 0d be 3e 98 f0 3d
       -0.21606365 -0.015822034 -0.13779952 0.11747788
0001c0 53 1f d1 be 04 56 8b be bc 23 67 3c 16 37 4a bd
       -0.4084421 -0.27214062 0.014107641 -0.04936894
0001d0 53 3b 89 3f 58 29 32 3f 61 dd 25 3f 2f 3f 45 3e
       1.0721229 0.69594336 0.6479092 0.19262384

layers.0.bias f4 [5]
000000 30 20 82 bd 7c d0 85 bd 62 eb 2a be 7e 9c 87 3d
       -0.063537955 -0.06533906 -0.16691354 0.066216454
000010 dd 2d 9c be
       -0.3050374

layers.2.weight f4 [5, 5]
000000 f0 90 10 3e b9 29 d9 be 1d 1f 6a 3e 7f 3f c2 3d
       0.1411779 -0.42414644 0.22863431 0.09484767
000010 e0 7e f9 3e 70 d3 46 3d e4 7b a8 be 84 d0 04 3f
       0.4872961 0.048541486 -0.3290702 0.5188067
000020 a1 83 ae 3e bc d7 13 3f 1e 1a a4 3e e0 a0 bb 3e
       0.340848 0.5775106 0.32051176 0.36646175
000030 a9 ac 15 be 35 32 d0 be b1 53 ef 3c 29 ea cd be
       -0.14616646 -0.40663305 0.029214712 -0.40217713
000040 30 47 d0 bd 58 4d 19 be 2c a0 f1 be 28 eb f8 3d
       -0.10169828 -0.1497091 -0.47192514 0.121542275
000050 72 e6 71 be 50 a9 37 bd ba 03 b9 bd 86 b8 bc be
       -0.23623064 -0.044839203 -0.09033914 -0.3685953
000060 e5 c8 4c be
       -0.1999851

layers.2.bias f4 [5]
000000 c8 18 42 3c c1 ff a6 be 74 b2 fa be 48 69 cd 3d
       0.011846729 -0.32617 -0.48964274 0.100298464
000010 16 4c 86 3d
       0.06557481

layers.4.weight f4 [1, 5]
000000 10 dd 22 3f 2e 65 e1 3e e6 32 c5 be 12 1b 2b bf
       0.63618565 0.44022506 -0.38515395 -0.6683818
000010 70 c0 91 3e
       0.2846713
