[EE5184]Machine Learning/hw/hw1/models/model4.ckpt (torch, 2775 bytes, 5 tensors)

layers.0.weight f4 [5, 24]
-0.21934989 -0.09264478 -0.32139477 0.1521288 -0.1374141 0.05555103 -0.1033129 -0.09170492
0.20912325 0.08525487 0.22893117 0.25883496 -0.04525238 -0.05136459 0.17350194 0.20506911
0.27411294 0.31084493 -0.1265756 0.17076728 -0.28764173 -0.413946 -0.5690906 0.07130667
4.4019426e-38 -1.5763987e-38 -1.8101836e-38 -3.965132e-11 -1.7122394e-06 -2.3694785e-18 -1.885392e-38 -1.9625321e-38
-2.6083993e-11 -2.042257e-06 -4.2318434e-17 -2.6303353e-38 -2.1071083e-38 -1.4489182e-11 -1.6130049e-06 -5.302364e-17
-2.7665936e-38 -2.592321e-38 -4.772966e-12 -1.0133676e-06 -2.7710247e-18 -5.030552e-39 -2.858304e-39 -4.3121067e-12
-0.1729642 0.0017426871 0.14590965 0.15270953 -0.026058044 -0.17565386 0.09986204 -0.088991664
0.05470635 0.11595391 0.00521193 -0.3188796 -0.27706376 0.053915184 0.022306507 -0.15000835
-0.35385635 -0.40272504 -0.19846572 0.015849797 0.4993299 0.35325208 0.16691293 0.13624233
-0.13479935 0.034508787 0.03793514 -0.21598318 -0.08922927 0.05092143 0.12387488 -0.025437959
-0.05444019 -0.05084377 0.041150574 -0.025369179 -0.18849501 0.0061437488 0.1069544 0.19406933
-0.10068675 -0.057484776 -0.04580978 0.06533838 0.52731717 0.27834243 0.3224651 -0.0051465207
0.18330753 0.3471618 0.02843547 0.1853517 0.045714207 0.043302353 0.10773043 0.22988507
0.14849254 0.10220622 0.16570416 -0.24274102 -0.048873294 0.12134507 -0.11506196 0.11068907
-0.19933817 -0.046538685 0.1268159 -0.013693017 0.57620674 0.33087215 0.32494867 0.21932958
00000000: 429d 60be 8cbc bdbd db8d a4be a7c7 1b3e
00000010: 48b6 0cbe 7a89 633d b795 d3bd cacf bbbd
00000020: 6824 563e 1b9a ae3d ef6c 6a3e 0486 843e
00000030: 8f5a 39bd ad63 52bd 7eaa 313e a3fd 513e
00000040: 8858 8c3e 1127 9f3e 099d 01be 9edd 2e3e
00000050: c745 93be bbf0 d3be ecaf 11bf 3b09 923d
00000060: 20aa 6f01 95a7 ab80 8e1c c580 6b63 2eae
00000070: 19d0 e5b5 2fd6 2ea2 0f4d cd80 69b3 d580
00000080: ee6f e5ad b50d 09b6 ca28 43a4 8635 0f81
00000090: 9b71 e580 7ae5 7ead 6d7e d8b5 4487 74a4
000000a0: b0a0 1681 ae23 0d81 0eef a7ac 0c03 88b5
000000b0: 2d77 4ca2 22c7 3680 ca1f 1f80 01b8 97ac
000000c0: 871d 31be e06a e43a 5769 153e e35f 1c3e
000000d0: ae77 d5bc 9bde 33be 7884 cc3d 4341 b6bd
000000e0: c413 603d 3e79 ed3d d6c8 aa3b 3044 a3be
000000f0: 4ddb 8dbe 2bd6 5c3d 23bc b63c ca9b 19be
00000100: a92c b5be fa31 cebe 993a 4bbe 6fd7 813c
00000110: 2ba8 ff3e 75dd b43e 39eb 2a3e 1c83 0b3e
00000120: d708 0abe 1659 0d3d e161 1b3d b22a 5dbe
00000130: d6bd b6bd fd92 503d 1db2 fd3d 4463 d0bc
00000140: adfc 5ebd 8f41 50bd 818d 283d 06d3 cfbc
00000150: d604 41be 8051 c93b e90a db3d 1cba 463e
00000160: db34 cebd 2875 6bbd 09a3 3bbd 21d0 853d
00000170: 42fe 063f e682 8e3e 251a a53e 25a4 a8bb
00000180: f8b4 3b3e 31bf b13e 81f1 e83c d6cc 3d3e
00000190: d23e 3b3d cf5d 313d c6a1 dc3d fe66 6b3e
000001a0: 6e0e 183e 7f51 d13d 5aae 293e 1a91 78be
000001b0: 5d2f 48bd c483 f83d 9ba5 ebbd f3b0 e23d
000001c0: 4e1f 4cbe 599f 3ebd 07dc 013e ad58 60bc
000001d0: 4982 133f 1368 a93e ac5f a63e ef97 603e

layers.0.bias f4 [5]
0.18465984 -1.1249854e-38 -0.1897972 0.016826238 -0.2903691
00000000: 7817 3d3e 0480 7a80 325a 42be 2ed7 893c
00000010: 42ab 94be

layers.2.weight f4 [5, 5]
-0.03908774 -0.00026492315 0.31911036 0.124188945 0.37711748 -0.1374458 -0.00015189007 0.6038529
0.37299642 0.46101868 0.4399316 0.00024279601 -0.22026402 -0.5977499 0.05155403 -0.17304307
8.555978e-05 -0.16309631 -0.36123854 0.24712272 -4.2268744e-38 -2.322296e-38 3.624842e-38 2.6819782e-38
-2.031492e-28
00000000: 771a 20bd 62e5 8ab9 6f62 a33e c656 fe3d
00000010: 8b15 c13e 97be 0cbe ae44 1fb9 1b96 1a3f
00000020: 63f9 be3e a40a ec3e b73e e13e 0f97 7e39
00000030: e48c 61be 2306 19bf 522a 533d 3432 31be
00000040: 8f6e b338 b802 27be 42f4 b8be bd0d 7d3e
00000050: 0822 6681 2ae0 fc80 ec5a 4501 5205 1201
00000060: d8c2 8091

layers.2.bias f4 [5]
0.009745309 -0.3137872 -0.27516025 0.27562 -1.4370812e-38
00000000: caaa 1f3c b7a8 a0be cee1 8cbe 111e 8d3e
00000010: fa7b 9c80

layers.4.weight f4 [1, 5]
0.5480215 0.4072052 -0.7465957 -0.34095407 -6.391519e-16
00000000: 234b 0c3f 337d d03e e520 3fbf 8891 aebe
00000010: 1639 38a6
