[EE5184]Machine Learning/hw/hw1/models/model3.ckpt (torch, 58817 bytes, 11 tensors)

layers.0.weight f4 [128, 24]
0	0xbbe39770	-0.006945543
1	0x3e36ddb8	0.17858016
2	0xbd1d4627	-0.03839698
3	0x3de67194	0.11252132
4	0xbe038238	-0.12842643
5	0xbe1a9f8e	-0.15099928
6	0x3dc41e72	0.095761195
7	0x3cd871a3	0.026421374
8	0x3e17d295	0.14826424
9	0x3d1ad13a	0.03779719
10	0x3e67997c	0.22617143
11	0xbcaf1273	-0.021371102
12	0xbe79d909	-0.24399199
13	0xbe0e2d9b	-0.13884585
14	0x3e025156	0.1272634
15	0x3e0c33ee	0.13691685
16	0xbd940e23	-0.07229259
17	0xbd9f99e8	-0.07793027
18	0xbe3c0e58	-0.18364847
19	0x3e1257c0	0.14291286
20	0x3ee223e2	0.44168
21	0x3e84d6d4	0.2594515
22	0x3dacd377	0.08438771
23	0x3e752b87	0.23942386
24	0xbbd4744e	-0.006483591
25	0x3e1e6b81	0.15470697
26	0x3dec2478	0.11530393
27	0x3d4c3d23	0.049862992
28	0x3bf43536	0.0074526323
29	0x3d9cb4f2	0.076517
30	0x3de54833	0.111954115
31	0x3d888de7	0.06667691
32	0x3d4d4177	0.05011126
33	0xbc17b38e	-0.009259118
34	0x3dd67633	0.104717635
35	0xbd9d3754	-0.076765686
36	0xbdc87b96	-0.09789197
37	0x3d373323	0.044726502
38	0xbbdd7ca7	-0.0067592445
39	0x3d12063c	0.035650477
40	0xbe0aa773	-0.1354044
41	0xbe1ca187	-0.15295993
42	0x3d11a683	0.03555919
43	0x3ba6e70d	0.0050934614
44	0x3eb0e509	0.3454974
45	0x3e923c8e	0.28561825
46	0x3e77ebc5	0.24211033
47	0x3df146d6	0.11781089
48	0xbba3867e	-0.004990398
49	0x3c14f28b	0.00909103
50	0x3dca2fec	0.098724216
51	0x3e3b28bc	0.18277258
52	0xbd9729e0	-0.07381034
53	0xbc8e8e43	-0.01740182
54	0x3da990f9	0.082796045
55	0xbd475090	-0.048660815
56	0x3dd8b925	0.105821885
57	0x3dbc3fdd	0.091918685
58	0x3c5df7ce	0.013547851
59	0xbe4d439d	-0.20045324
60	0xbe35ebf1	-0.17765786
61	0x3dfca9e6	0.12337093
62	0x3ca6c914	0.020359553
63	0xbe3e04d5	-0.18556531
64	0xbe8b4d9f	-0.27207658
65	0xbe9fb8f4	-0.31195796
66	0xbe282360	-0.16419744
67	0x3ca6ee4a	0.020377297
68	0x3e87dc90	0.26535463
69	0x3e733c26	0.23753414
70	0x3dcf5ad1	0.10124744
71	0x3df94f69	0.121733494
72	0x00035bfc	3.08504e-40
73	0x80021ceb	-1.94045e-40
74	0x8003d9fd	-3.53706e-40
75	0xb9b64ef3	-0.00034772567
76	0xbb592870	-0.0033135675
77	0x38d7a6ec	0.000102830905
78	0x800a8824	-9.67193e-40
79	0x8001555b	-1.22455e-40
80	0xb8253834	-3.939141e-05
81	0xbafa3140	-0.0019088164
82	0xb89dae85	-7.51885e-05
83	0x0004ba17	4.34098e-40
84	0x80059d50	-5.1561e-40
85	0x3905579c	0.00012716505
86	0x3af3a202	0.0018587711
87	0x391f644d	0.00015200787
88	0x00045e7b	4.01235e-40
89	0x00089e90	7.91565e-40
90	0xb809a7af	-3.2819513e-05
91	0x3a86b858	0.0010278327
92	0x38894140	6.544823e-05
93	0x800d300d	-1.211099e-39
94	0x000157db	1.23352e-40
95	0xb96c79e1	-0.00022552117
96	0xbc08a139	-0.00833922
97	0x3e92c43a	0.28665334
98	0x3d6bbfcf	0.05755597
99	0x3e588f72	0.2114847
100	0x3d026f9d	0.031844724
101	0x3e6e4d73	0.23271732
102	0x3decbb5c	0.115591735
103	0x3e3afb42	0.1825991
104	0x3e4f9d5f	0.20274876
105	0x3ddc08f2	0.10743894
106	0x3e5296dc	0.20565361
107	0xbe2c73c0	-0.1684103
108	0xbd306aa5	-0.043070454
109	0x3e481778	0.19540203
110	0xbdd1c4e3	-0.10242631
111	0x3e12d432	0.14338759
112	0xbe46917f	-0.1939144
113	0xbdd3b1f6	-0.10336678
114	0x3e1e3742	0.15450767
115	0xbbc2c5a8	-0.0059439726
116	0x3ef99592	0.48746926
117	0x3e723ef2	0.23656824
118	0x3e573aa3	0.21018462
119	0x3e44d27d	0.1922092
120	0x10593693	4.2837747e-29
121	0xbc6e0929	-0.014528551
122	0xbc459332	-0.01205902
123	0x3d8a5480	0.06754398
124	0xbe47eea9	-0.19524635
125	0xbc11c981	-0.00889814
126	0xbd0e651d	-0.034764398
127	0x3bafd495	0.005365918
128	0xbda5f870	-0.08104026
129	0x3d922d03	0.071374916
130	0xbd3a1845	-0.0454333
131	0xbcea04de	-0.028566774
132	0x3cdc4dac	0.026892506
133	0x3c9aa04b	0.018875262
134	0x3dda726a	0.10666354
135	0x3e062539	0.13100137
136	0x3cb9ac8e	0.022665288
137	0xbc2ede78	-0.010673158
138	0xbe281d31	-0.16417386
139	0xbb4a9462	-0.0030911197
140	0xbdf4f96a	-0.119616345
141	0xbc477cd5	-0.012175758
142	0xbc321751	-0.010869817
143	0xbdc3997e	-0.09550761
144	0xbbbceab1	-0.005765282
145	0x3e16296d	0.1466424
146	0x3de3a306	0.11115079
147	0x3d3c0e7f	0.045912262
148	0x3ab5d11c	0.0013871524
149	0x3d8c2dc9	0.0684467
150	0x3dd7024d	0.10498486
151	0x3d73cfe2	0.059524424
152	0x3d29f9eb	0.041498106
153	0xbc695721	-0.014241965
154	0x3dc83120	0.09774995
155	0xbdae2522	-0.08503176
156	0xbdcecdb9	-0.10097832
157	0x3d148ddf	0.03626811
158	0xbc5acc1d	-0.013354328
159	0x3cdb518b	0.026772281
160	0xbe0e3a62	-0.13889459
161	0xbe200ed6	-0.1563066
162	0x3cead8e4	0.028667875
163	0xb830a9a4	-4.211966e-05
164	0x3eab7087	0.3348429
165	0x3e8dc427	0.27688715
166	0x3e6ca3ee	0.23109409
167	0x3ddf59f6	0.109058306
168	0xbbc07775	-0.0058736154
169	0x3e17cbbe	0.14823815
170	0x3de8399d	0.11339114
171	0x3d2d02dc	0.042239055
172	0x3abf01bd	0.0014572662
173	0x3d8cdad6	0.06877677
174	0x3dd6e821	0.10493494
175	0x3d6e0ba9	0.05811659
176	0x3d36a2f5	0.044589
177	0xbc7ac4b5	-0.015305688
178	0x3dcc0828	0.09962493
179	0xbda848a9	-0.08216984
180	0xbdcf5f11	-0.10125554
181	0x3d16e034	0.03683491
182	0xbc33a12a	-0.0109637175
183	0x3d000ee7	0.031264212
184	0xbe0c8c1e	-0.13725325
185	0xbe24cac7	-0.16092978
186	0x3d028b54	0.031871155
187	0xba8d7446	-0.0010792098
188	0x3eacb832	0.3373428
189	0x3e8e3635	0.27775732
190	0x3e6d171d	0.23153348
191	0x3de7b5bd	0.11313961
192	0xbb77fafa	-0.0037838803
193	0x3d762672	0.060095258
194	0x3df1e36a	0.11810954
195	0x3e6294a2	0.22127011
196	0xbe4793d4	-0.19489986
197	0x3db53f6a	0.08849986
198	0x3daa1f82	0.08306791
199	0xbd59575f	-0.05306184
200	0x3e5dcf19	0.21661033
201	0xbd9dacaa	-0.07698949
202	0x3e0d7134	0.13812715
203	0xbccee855	-0.025257269
204	0xbdd5bf73	-0.10436907
205	0xbdb507d7	-0.08839386
206	0x3e32e09c	0.17468494
207	0x3e60ef45	0.21966274
208	0xbe55b783	-0.20870785
209	0xbe859f88	-0.26098275
210	0x3e297577	0.16548716
211	0x3daaa62d	0.08332477
212	0x3eb4e9e2	0.35334688
213	0x3e9f683f	0.3113422
214	0x3df3137c	0.11868951
215	0xbcdad38e	-0.026712205
216	0x80087bf3	-7.79149e-40
217	0x38706e79	5.7323345e-05
218	0x390b44c1	0.00013281686
219	0xbcc8cc7e	-0.024511572
220	0x3de2c10d	0.11071978
221	0x3d6d6248	0.057955056
222	0xb8db67f3	-0.00010462096
223	0xb99303a7	-0.00028040746
224	0xbd2396f2	-0.039938875
225	0xbd9ca1bb	-0.07648035
226	0x3db39e67	0.08770447
227	0xb7c9564e	-2.4001256e-05
228	0x39938f8d	0.0002814498
229	0xbc2f9785	-0.010717277
230	0xbc9aeb25	-0.018910954
231	0xbd822293	-0.06354251
232	0x38b502d5	8.63128e-05
233	0xb8d95880	-0.00010363851
234	0xbe0ef757	-0.1396154
235	0xbd493953	-0.049126934
236	0x3c90890b	0.017643472
237	0xb95cf035	-0.00021070319
238	0xb7a467a1	-1.959858e-05
239	0x3df9420b	0.121708
240	0xbd62711a	-0.055283643
241	0x3cc48bec	0.023992501
242	0x3e39818d	0.18115826
243	0xbe3f9234	-0.18708116
244	0xbdfc23bf	-0.123115055
245	0xbd83be04	-0.06432727
246	0x3e3e7c6a	0.18602148
247	0x3e1b61f1	0.1517408
248	0x3ddb327e	0.1070299
249	0x3e1c07d4	0.15237361
250	0xbd5bb0f4	-0.053635553
251	0xbc6d5a64	-0.014486883
252	0xbd9278c6	-0.07151942
253	0x3db2de35	0.08733789
254	0xbcafd193	-0.021462237
255	0x3dce7c7f	0.100823395

layers.0.bias f4 [128]
0	0xbe8d0faf	-0.27551028
1	0xbe801824	-0.25018418
2	0xbe231852	-0.15927246
3	0x00044169	3.90807e-40
4	0xbe09c468	-0.1345383
5	0xba854031	-0.0010166225
6	0xbe800de7	-0.25010607
7	0xbe8040c5	-0.25049415
8	0xbe72ddbd	-0.23717399
9	0x358a30e4	1.029603e-06
10	0xbea9aba9	-0.3313878
11	0xbea72c25	-0.32650867
12	0xbe75609c	-0.23962635
13	0xbe87d62e	-0.26530594
14	0xbe6cf509	-0.23140348
15	0xb8b1a763	-8.471196e-05
16	0xbe807e20	-0.25096226
17	0x3181de5a	3.7796726e-09
18	0xbe7d644a	-0.24745288
19	0x3f22b0a4	0.6355078
20	0xbe80e478	-0.25174308
21	0xbe652652	-0.223779
22	0xbe80ae3d	-0.25132933
23	0xbe7f9784	-0.24960142
24	0x3ed15ff4	0.4089352
25	0xbe7023b0	-0.23451114
26	0x8000ac9b	-6.1919e-41
27	0xbe5f72ca	-0.21821132
28	0xbe2d3abf	-0.16916941
29	0xbb517cb0	-0.0031965189
30	0x952920a7	-3.4155036e-26
31	0xbe3f9dc7	-0.18712531
32	0xbdd530f5	-0.104097284
33	0xbe97c89d	-0.29645243
34	0xbeb041ff	-0.3442535
35	0xbe7fcd06	-0.24980554
36	0xbe7fb2fd	-0.24970622
37	0xbe8036c6	-0.2504179
38	0x0fb0ea2f	1.7445144e-29
39	0x3d8de4ba	0.06928392
40	0xba8dd632	-0.0010821281
41	0xbe7ca61c	-0.2467274
42	0xbe7a8d44	-0.24467951
43	0x23be8a01	2.0658288e-17
44	0xbe7e5f5c	-0.24841064
45	0xbe81a626	-0.25322074
46	0xbe7fd5e9	-0.24983944
47	0xbedbdbae	-0.4294104
48	0x3e12c511	0.14332987
49	0x80081c2b	-7.44789e-40
50	0xbe8d9259	-0.27650717
51	0xbeb1d27d	-0.34730902
52	0xbe76168f	-0.24032043
53	0xbe8169da	-0.2527607
54	0xbe80405d	-0.25049105
55	0xbcc710c1	-0.024299981
56	0xbeadd149	-0.33948734
57	0xbed0e99b	-0.40803227
58	0xbedc1152	-0.42981964
59	0xbe8138eb	-0.25238737
60	0x3dbf0601	0.09327317
61	0xbebe2a3c	-0.37141597
62	0xbe781481	-0.24226572
63	0xbe0ee18b	-0.13953225
64	0x31d0053c	6.054192e-09
65	0xbba3a1c2	-0.0049936483
66	0xbe4bc5a6	-0.19899616
67	0xbd96de64	-0.073666364
68	0xbe7f8059	-0.24951304
69	0xbe7d3ec5	-0.24730976
70	0x3d580574	0.052739576
71	0xbe794787	-0.24343692
72	0x80007b5b	-4.4252e-41
73	0xbeca4f32	-0.39513546
74	0xbed9f44a	-0.4256919
75	0xbe59e4d4	-0.21278697
76	0xbe7d7a6c	-0.24753731
77	0x3a07cbc9	0.00051802077
78	0xbe7ca316	-0.24671587
79	0xbecd8722	-0.4014216
80	0xbe80c418	-0.25149608
81	0xbe80d239	-0.25160387
82	0xbe7b1187	-0.24518405
83	0xbe81652b	-0.25272498
84	0xaee1b666	-1.0264216e-10
85	0x0004ff3c	4.58903e-40
86	0xb35c70b7	-5.1325255e-08
87	0xbe9cc653	-0.3062006
88	0xbeaad9bb	-0.3336924
89	0xbe7ea787	-0.24868594
90	0xbe5d6398	-0.21620023
91	0xb5a08fc0	-1.1962766e-06
92	0xbeb75952	-0.35810333
93	0xb85ad49a	-5.217325e-05
94	0x3e1d7197	0.15375362
95	0xbe7c5d31	-0.24644925
96	0xbe811aab	-0.2521566
97	0xbba509de	-0.0050365767
98	0xbe7db89e	-0.24777457
99	0xbdb2d377	-0.0873174
100	0xbea980ec	-0.33106172
101	0xbeab8632	-0.3350082
102	0xbe81cbef	-0.253509
103	0x315fba9b	3.2556844e-09
104	0xbd614d93	-0.05500562
105	0xbda49121	-0.08035494
106	0xbe800806	-0.2500612
107	0xbe831e15	-0.25608888
108	0xbeb3a063	-0.35083303
109	0xbeab182f	-0.33416888
110	0xbe7fe7d1	-0.24990775
111	0x3f3af71f	0.73033327
112	0xbe7d42ec	-0.2473256
113	0xbed9cef9	-0.4254072
114	0xbc4d0222	-0.0125127155
115	0xbe813efe	-0.25243372
116	0x3df0f40e	0.117653
117	0xbe80cff8	-0.25158668
118	0xbe926629	-0.28593567
119	0xbe515624	-0.20443016
120	0xbec1e32b	-0.37868628
121	0xbe80b311	-0.25136617
122	0xbe508f0f	-0.20367073
123	0x3ef4398c	0.47700155
124	0xbdbd32b3	-0.09238186
125	0xbe7daaca	-0.24772182
126	0xbe909ac2	-0.2824307
127	0xbe80d40e	-0.25161785

layers.2.weight f4 [64, 128]
0	0x3d3a3fe2	0.04547108
1	0x01a5f847	6.096769e-38
2	0xbccd6eeb	-0.025077304
3	0x80007039	-4.0258e-41
4	0xbd9161c2	-0.07098724
5	0xbc065baf	-0.00820057
6	0x800400ea	-3.6767e-40
7	0x018ad8d0	5.1004305e-38
8	0xbc26f6eb	-0.010190706
9	0xba1e812c	-0.000604647
10	0xbb91ecfb	-0.004453299
11	0x3bb59c15	0.005542288
12	0x8002d1be	-2.58912e-40
13	0xb800990f	-3.0660125e-05
14	0x3a9da172	0.0012026264
15	0x3c83d223	0.016091412
16	0x8002ad5c	-2.4586e-40
17	0x3250a030	1.2143616e-08
18	0x00015c08	1.2485e-40
19	0x1075615a	4.8392727e-29
20	0x8008d498	-8.10948e-40
21	0xbd51f5a0	-0.051259637
22	0x00298d35	3.815911e-39
23	0x80c55662	-1.8122581e-38
24	0x3bd1b8dd	0.0064002112
25	0xbd15f1be	-0.036607496
26	0x0001e2ea	1.73237e-40
27	0x3c19561a	0.009358907
28	0xbbf5d4ac	-0.007502159
29	0x24bb82d4	8.1319954e-17
30	0x80032ac1	-2.90844e-40
31	0xb5b8bdd2	-1.3764313e-06
32	0x3c041c37	0.008063368
33	0x3d1e54db	0.038655143
34	0x3cb745af	0.022372095
35	0x000a1b78	9.28209e-40
36	0x000a0e18	9.23411e-40
37	0x80030cef	-2.80146e-40
38	0x1fd7a2f4	9.1325625e-20
39	0x3cdaa43b	0.02668964
40	0xb89780b1	-7.224212e-05
41	0x81a1af34	-5.9393464e-38
42	0xba151810	-0.00056874845
43	0x339aff37	7.217607e-08
44	0x00877506	1.2439772e-38
45	0x80294a2f	-3.791867e-39
46	0x00c97e70	1.8504292e-38
47	0x3ca8c64c	0.020602368
48	0x32a6c6c6	1.9415335e-08
49	0x00075030	6.71614e-40
50	0x3c833b94	0.01601962
51	0x3c137ffb	0.009002681
52	0x3ca36035	0.019943336
53	0x00883a79	1.2510604e-38
54	0x0025a318	3.45642e-39
55	0xb9b62f7c	-0.00034749124
56	0xbd0998b7	-0.033592906
57	0x0009e5a4	9.08899e-40
58	0xb97de2de	-0.00024212475
59	0x804de3ad	-7.153008e-39
60	0xbca8e4f5	-0.020616988
61	0x3c93c2b7	0.018037183
62	0x0002181c	1.9232e-40
63	0xbba3906d	-0.004991582
64	0x38a37052	7.793367e-05
65	0x00012dd9	1.08283e-40
66	0xbced9895	-0.02900342
67	0xbc6c2cbe	-0.014414964
68	0x00083c14	7.56236e-40
69	0x004fe750	7.337983e-39
70	0xbcfdfc6e	-0.031004157
71	0x00004241	2.3767e-41
72	0x000cb198	1.165735e-39
73	0xbcfe3fac	-0.03103622
74	0xbca4fb80	-0.020139456
75	0xbc936c97	-0.017996116
76	0xb2a09654	-1.8694813e-08
77	0x39222961	0.00015464939
78	0x8009b81b	-8.92564e-40
79	0xbbb973c1	-0.005659551
80	0x802e64ae	-4.26055e-39
81	0x806ceb7e	-1.0002712e-38
82	0x00d2b36e	1.9349821e-38
83	0x0001320f	1.09793e-40
84	0xb8bd3d71	-9.023667e-05
85	0x000330ee	2.93059e-40
86	0x30a1a46e	1.1761025e-09
87	0x3bc35ea2	0.005962209
88	0xbb83af3c	-0.0040186923
89	0x800652bf	-5.80697e-40
90	0x3d9254f9	0.071451135
91	0x3c5d38ca	0.013502309
92	0x3b467df0	0.0030287467
93	0x80063f0c	-5.7363e-40
94	0xba18d99d	-0.0005830767
95	0x802b3c5a	-3.970576e-39
96	0x80050039	-4.59257e-40
97	0xbb58cd84	-0.0033081481
98	0x01fbae56	9.2453e-38
99	0x3c802e5f	0.015647111
100	0x3b31c405	0.0027124893
101	0xba037df2	-0.0005016021
102	0x9f639ae4	-4.8197242e-20
103	0xb4d269b7	-3.9192466e-07
104	0xba0d7451	-0.00053960556
105	0xbb66e42b	-0.0035231214
106	0x0006f026	6.37162e-40
107	0x3d086adf	0.033305045
108	0xbce5f848	-0.028072491
109	0x3d010bff	0.03150558
110	0x004202bc	6.062124e-39
111	0x8009f6f8	-9.15115e-40
112	0x007d025e	1.1480286e-38
113	0xbbc499e0	-0.0059997886
114	0xbc80b356	-0.015710514
115	0x000a91ab	9.70611e-40
116	0x3d0ad29d	0.033892263
117	0x8093936c	-1.3552703e-38
118	0x3bd7f49a	0.006590438
119	0xbce48cf4	-0.027899243
120	0xbcc3f5af	-0.023920862
121	0x8108d276	-2.5130253e-38
122	0xbc3b3367	-0.0114258295
123	0x2561dd5b	1.9590637e-16
124	0x3ca293ca	0.019845862
125	0x00057042	4.99448e-40
126	0xbbdf2346	-0.006809625
127	0x8067ad4e	-9.521226e-39
128	0x3ab03680	0.0013443977
129	0x80f48582	-2.2455755e-38
130	0xbd9383eb	-0.07202896
131	0x1d1c2c77	2.0669416e-21
132	0xbd367933	-0.04454918
133	0xbc75b506	-0.014996773
134	0x800d1027	-1.199656e-39
135	0x0078935f	1.1073126e-38
136	0x3c753b4a	0.014967749
137	0x3c98a730	0.018634409
138	0x3b9a263f	0.0047042663
139	0xbc9742b3	-0.018464422
140	0x800483c5	-4.14612e-40
141	0xba1c4980	-0.000596188
142	0xbcdbb4a7	-0.02681954
143	0x3c806caa	0.015676815
144	0x016d165c	4.3546067e-38
145	0xb9913a8b	-0.00027700173
146	0x000a561a	9.49242e-40
147	0x80026bc1	-2.22326e-40
148	0x005970dc	8.213845e-39
149	0x3b899dfb	0.004199741
150	0x800315d3	-2.83336e-40
151	0x000d14ed	1.201368e-39
152	0x3cb756e9	0.02238031
153	0xbcaa6b74	-0.02080319
154	0x80022de7	-2.00138e-40
155	0xbd477227	-0.04869285
156	0xbc6fa931	-0.014627741
157	0x00d248ce	1.9311572e-38
158	0x80985e0b	-1.3992732e-38
159	0x2bb65395	1.2955076e-12
160	0xbb8e7057	-0.004346888
161	0xbd2d1b06	-0.0422621
162	0x3d446389	0.047946487
163	0x80027bb1	-2.28043e-40
164	0x00095610	8.57393e-40
165	0x802c79b1	-4.084416e-39
166	0x33da75ec	1.0172866e-07
167	0x3d409f02	0.04702664
168	0xb8d63854	-0.00010214807
169	0x000c6761	1.139111e-39
170	0x3b628dbd	0.0034569346
171	0x2155003f	7.2167533e-19
172	0x80912bb3	-1.3331823e-38
173	0x80295a8d	-3.797739e-39
174	0x00094251	8.5031e-40
175	0xbd197257	-0.03746256
176	0xa36310bf	-1.2309241e-17
177	0x80069d3f	-6.07422e-40
178	0xbcb4531e	-0.02201229
179	0xbd1c0110	-0.03808695
180	0xbd58d13a	-0.05293391
181	0x000bb34a	1.074507e-39
182	0x0062048a	9.001507e-39
183	0xba80a1b9	-0.0009813822
184	0xbcc0d0a1	-0.023536982
185	0x000b1cca	1.020518e-39
186	0x8001baa7	-1.58794e-40
187	0x80009939	-5.4966e-41
188	0xbc6f1392	-0.014592068
189	0xbd244ac8	-0.04011038
190	0x000c6426	1.137952e-39
191	0xba5da427	-0.00084549416
192	0x240314d7	2.842375e-17
193	0x0034918a	4.827655e-39
194	0xbbdbb0d8	-0.006704431
195	0x3cc3b5dd	0.02389043
196	0x00008362	4.7131e-41
197	0xa9e233ac	-1.004538e-13
198	0x3b828cb9	0.0039840606
199	0x812e85d6	-3.2054775e-38
200	0x80062cfb	-5.67149e-40
201	0xbc1f1205	-0.009708886
202	0x3b2489de	0.002510659
203	0xbd74021f	-0.059572335
204	0x005ba97c	8.41783e-39
205	0xb7a75d24	-1.9951323e-05
206	0x002dc8e4	4.204663e-39
207	0xbd045d17	-0.03231534
208	0x003b9aa4	5.473769e-39
209	0x800b05fd	-1.012339e-39
210	0x8006ad5a	-6.132e-40
211	0x000d1614	1.201782e-39
212	0x3cd5aeeb	0.026084384
213	0x8009edda	-9.11845e-40
214	0x3ac683e2	0.0015145505
215	0x3d41b05d	0.047287334
216	0x38e749f4	0.00011028713
217	0x0005e17d	5.40067e-40
218	0xbabf8f8f	-0.0014614927
219	0xbd787d94	-0.060666636
220	0xbdb2c1d4	-0.08728376
221	0x80013717	-1.11598e-40
222	0xa9acd58d	-7.6753796e-14
223	0x806a2f88	-9.751614e-39
224	0x803c03cf	-5.511496e-39
225	0xb48a7b6b	-2.5794301e-07
226	0x0049472e	6.729526e-39
227	0x3d3cd62f	0.0461027
228	0x3c934832	0.017978761
229	0xbc3434b7	-0.010998896
230	0x80506668	-7.383576e-39
231	0xbaf61189	-0.0018773536
232	0xb96e0f4d	-0.00022703149
233	0x3cd05d4b	0.02543511
234	0x80253d04	-3.419802e-39
235	0xbce08e95	-0.027411738
236	0xbd5b16c9	-0.053488526
237	0x3cec46bd	0.028842324
238	0x000a584b	9.50029e-40
239	0x805cea54	-8.532927e-39
240	0x0241a2ef	1.422616e-37
241	0xbd8deb5e	-0.06929658
242	0x3d43d1e6	0.047807597
243	0x000a933d	9.71174e-40
244	0xbce3dd89	-0.027815597
245	0x000c2d6a	1.118317e-39
246	0x3b956bc8	0.0045599677
247	0xbd07e687	-0.033178832
248	0x3b7f3bce	0.0038945558
249	0x80fb5a88	-2.3083186e-38
250	0xbd5d8acd	-0.05408745
251	0x000128ec	1.06515e-40
252	0x3d15e8fa	0.036599137
253	0x800799cf	-6.98025e-40
254	0x38dd4572	0.000105510364
255	0x800d0b3b	-1.19789e-39

layers.2.bias f4 [64]
0	0x3a7b57aa	0.0009587953
1	0x3b7988f5	0.0038076018
2	0x3bd470fd	0.006483196
3	0x8002792f	-2.27143e-40
4	0xb7b2fd29	-2.133714e-05
5	0xbe711c55	-0.23545964
6	0xba2e99b1	-0.0006660475
7	0xb853d63c	-5.050584e-05
8	0xbe3edf96	-0.18639979
9	0xbb00fd2a	-0.0019682148
10	0xbe30ea9b	-0.17276995
11	0xbe2994f5	-0.16560729
12	0xb9c28677	-0.00037102748
13	0x3ae8e36c	0.0017767972
14	0x8ad7d166	-2.0782514e-32
15	0xbe6f9821	-0.23397876
16	0x0f807a18	1.2668803e-29
17	0xb8bd4fac	-9.027062e-05
18	0xbe4d3390	-0.20039201
19	0xbe57a2f8	-0.21058261
20	0xbe4c270c	-0.1993677
21	0xbe5a4a1f	-0.21317337
22	0xba6429bc	-0.00087037287
23	0x0009019d	8.27098e-40
24	0xbde9d836	-0.11418192
25	0xb8db9f3b	-0.00010472393
26	0xbe398240	-0.18116093
27	0xbe7c41c4	-0.24634463
28	0x3ad12b99	0.0015958428
29	0x0f6cb39a	1.1670288e-29
30	0xbe6becd8	-0.23039567
31	0x3ede2834	0.43390048
32	0xbe431d2b	-0.19054095
33	0xb7b31a67	-2.1350757e-05
34	0xb5202de7	-5.967144e-07
35	0xbe4e6b1a	-0.20158044
36	0x3bbc0555	0.0057379403
37	0x39e39d24	0.00043413893
38	0x3bdd7952	0.0067588473
39	0x38e99c35	0.000111394016
40	0xbbdfc5e0	-0.0068290085
41	0xb8c953fa	-9.600069e-05
42	0xbe14ae29	-0.14519562
43	0xbe2930a9	-0.16522469
44	0xbdfababa	-0.122426465
45	0x384b18e3	4.842215e-05
46	0x3126f599	2.4295785e-09
47	0xadc61b0f	-2.252201e-11
48	0xbe4ca672	-0.19985369
49	0xbe2d093e	-0.16898057
50	0xbe73706e	-0.23773357
51	0xbe70357f	-0.23457907
52	0xbe4d4f24	-0.20049721
53	0x2c1d47bd	2.2350865e-12
54	0xbe5a81ff	-0.21338652
55	0xb9a24a4f	-0.00030954412
56	0x8fa86880	-1.6606331e-29
57	0xbb4bca6f	-0.0031096002
58	0x36b29d60	5.3231342e-06
59	0xb87c7492	-6.0190046e-05
60	0x363254d2	2.6573439e-06
61	0xbe882799	-0.2659271
62	0xbe4daad8	-0.20084703
63	0xb92f0047	-0.00016689404

layers.4.weight f4 [32, 64]
0	0x3d8b5ac7	0.06804424
1	0xbcb609cb	-0.022221467
2	0xbca81681	-0.020518543
3	0x800c5ef8	-1.136094e-39
4	0xb8a895cc	-8.038766e-05
5	0x3d0983af	0.03357285
6	0x3d905e3e	0.07049225
7	0xbb9b9a79	-0.004748639
8	0x3c88f6f9	0.016719328
9	0xbaae60a9	-0.0013303953
10	0x3dbf4188	0.09338671
11	0x3ca87e5c	0.020568065
12	0xbcb81b51	-0.022473963
13	0x3d05dedd	0.032683242
14	0x3b0ea16e	0.00217637
15	0x3d8e55fc	0.06949994
16	0x3cfe24e5	0.031023452
17	0xbd34e904	-0.044167534
18	0x3d8dbbaa	0.0692056
19	0x3d2b2443	0.04178263
20	0x3d935181	0.0719328
21	0x3daec8fe	0.0853443
22	0xbb8c8d1c	-0.0042892825
23	0x2a02db20	1.1622344e-13
24	0x3c65fe99	0.014037752
25	0x3bf0aa9f	0.0073445584
26	0x3da49720	0.08036637
27	0xbd2aa51c	-0.041661367
28	0x3d84ba81	0.06480885
29	0x3ceb5416	0.028726619
30	0xbcc446ba	-0.023959506
31	0xbe47cbda	-0.19511357
32	0xbd759dc6	-0.059964918
33	0xbd48324d	-0.048876096
34	0x3cdd1ed0	0.026992232
35	0x3d95f111	0.073213704
36	0x3c0bb92c	0.008528035
37	0x3cf0642b	0.029344639
38	0x3d237aea	0.03991214
39	0xbc2a700d	-0.010402692
40	0x3dbe8e8c	0.093045324
41	0xbd5e9b37	-0.054347243
42	0x3cd3d86a	0.02586003
43	0x3d1b326a	0.037889875
44	0xbd85126e	-0.06497656
45	0xbd8ca3b3	-0.06867161
46	0xbbc1afeb	-0.0059108636
47	0xba8f0df2	-0.001091419
48	0x3d2c366e	0.042044096
49	0x3df0cccd	0.11757813
50	0x3e0fa6ef	0.14028524
51	0x3bcdac33	0.0062766313
52	0x3d967451	0.07346404
53	0x3d354290	0.044252932
54	0x3de21b57	0.11040371
55	0xbd0c3a1e	-0.034235112
56	0x3d399201	0.045305256
57	0xb8f5acaf	-0.00011714675
58	0xbbf353ef	-0.007425777
59	0xbcbfafd7	-0.023399277
60	0xbcfcbb75	-0.030851105
61	0xbd92bfbe	-0.07165478
62	0x3d924d94	0.07143703
63	0x3c5f4258	0.013626657
64	0x3dabd253	0.083897255
65	0xbbd03c21	-0.006354824
66	0x3d54b729	0.051932488
67	0x320759e3	7.878472e-09
68	0xaecb49c2	-9.244473e-11
69	0x3d84c180	0.0648222
70	0xbd3d7dd0	-0.046262562
71	0x3a11a42c	0.00055557746
72	0x3e1b3060	0.15155172
73	0x3b5788ce	0.0032887938
74	0x3c68eb2f	0.014216228
75	0x3c011484	0.007878426
76	0xbc90b851	-0.017666014
77	0xbcad5b02	-0.02116156
78	0x3c3666c3	0.011132899
79	0x3d9ea1da	0.077457145
80	0x3d29c015	0.04144295
81	0xbd38f9cf	-0.04516011
82	0x3dbe6ba1	0.09297872
83	0x3e332f6f	0.17498563
84	0x3dbfa2e3	0.0935724
85	0x3da74edc	0.08169338
86	0x3d43c0de	0.047791354
87	0x33d3b399	9.858122e-08
88	0x3cf0741d	0.029352242
89	0x3bc6ae6d	0.0060632736
90	0x3e18b98a	0.14914528
91	0x3d322c34	0.043499187
92	0xbd6224d2	-0.055210896
93	0x3d20a1c5	0.039216775
94	0x3d4f5bb6	0.05062457
95	0xbe305409	-0.17219557
96	0xbd3ddc3f	-0.04635262
97	0xbd539e93	-0.0516649
98	0x3d1593dc	0.036517963
99	0x3dc546db	0.09632655
100	0xbc9b323e	-0.018944856
101	0x3c24c320	0.010056287
102	0x39b41fb0	0.00034355884
103	0xbc1b2340	-0.0094688535
104	0x3dd69444	0.10477498
105	0x3d99df08	0.07513243
106	0x3e06ec6d	0.13176127
107	0x3d5c8c48	0.05384472
108	0x3d01f55e	0.03172814
109	0x3d80f1c4	0.06296113
110	0x00037433	3.17191e-40
111	0xbac97366	-0.0015369474
112	0xbcd26840	-0.025684476
113	0x3dd07356	0.101782486
114	0xbd66d97a	-0.056359746
115	0x3e2ea862	0.1705642
116	0x3dcb8471	0.099373706
117	0x3d4d90f3	0.050187062
118	0x3e21ebc3	0.15812592
119	0x3cc551e8	0.024086908
120	0x3d7b2f1a	0.061324216
121	0x3ccd2586	0.025042307
122	0x3c6bd5c6	0.014394229
123	0xbd750f59	-0.05982909
124	0xbd3f3a36	-0.046686374
125	0x3db50273	0.08838358
126	0x3dbe9bb6	0.09307043
127	0x3d3effb7	0.046630587
128	0x0009f8a1	9.15711e-40
129	0x000024f4	1.3256e-41
130	0x80056de0	-4.98593e-40
131	0x80016d41	-1.31028e-40
132	0x000c52f3	1.131783e-39
133	0x3d67b442	0.05656839
134	0x000a5de7	9.52041e-40
135	0x00616b4c	8.946534e-39
136	0x3da2da3c	0.07951781
137	0x8058c4a1	-8.152061e-39
138	0x3d6e774f	0.05821925
139	0x3d8f8420	0.07007623
140	0x00085188	7.63932e-40
141	0x004b8087	6.933769e-39
142	0x3b317d54	0.0027082758
143	0x3d92e663	0.07172849
144	0x3d029451	0.031879727
145	0xbd348b94	-0.044078425
146	0x3d904e1e	0.0704615
147	0x3d9ec798	0.07752913
148	0x3d95b3c9	0.07309682
149	0x3da3aa56	0.079914734
150	0x000a2256	9.30672e-40
151	0x2b365de2	6.478968e-13
152	0x3c8fed4e	0.01756921
153	0x3bed4c66	0.0072417734
154	0x3da88327	0.0822814
155	0x3d99269e	0.07478069
156	0xba90ead2	-0.001105631
157	0x3cf452bb	0.029824605
158	0x3db05fb1	0.08612002
159	0xbe42c202	-0.1901932
160	0x3d8acca7	0.067773156
161	0xbd4d8674	-0.050177053
162	0x3cf55b7c	0.02995085
163	0x3d9a4587	0.075327925
164	0x000ba6ee	1.070074e-39
165	0xb9d8ba12	-0.00041337364
166	0x3767f62c	1.3825989e-05
167	0x8007b9b2	-7.09463e-40
168	0x3ca23baf	0.01980385
169	0x802768ac	-3.619134e-39
170	0x3da2bf84	0.07946685
171	0x3d2ae64e	0.041723542
172	0x3d0d2793	0.03446157
173	0x000578d6	5.02525e-40
174	0x0005000a	4.59191e-40
175	0x00001863	8.748e-42
176	0x3d5965b3	0.053075504
177	0x3d987561	0.07444263
178	0x3d996f51	0.07491935
179	0x3da49934	0.08037034
180	0x3d973b57	0.07384365
181	0x3d45b5c6	0.048269056
182	0x3d86767d	0.065655686
183	0xb905bcbb	-0.00012754176
184	0x3d48dcf9	0.04903886
185	0x372eb563	1.0413441e-05
186	0x800773c6	-6.8438e-40
187	0x800aff52	-1.009947e-39
188	0x000ba2ee	1.068639e-39
189	0x3d8fba37	0.070179395
190	0x3d8ff0dd	0.07028363
191	0xb81b6d60	-3.7056743e-05
192	0x80d38372	-1.9424443e-38
193	0x00058a6f	5.08838e-40
194	0x00093284	8.44641e-40
195	0x000784e8	6.90526e-40
196	0x0000570d	3.1228e-41
197	0xbcc7738c	-0.02434709
198	0x007bfe9e	1.1387105e-38
199	0x000ae1dc	9.99378e-40
200	0xbce9bc10	-0.028532058
201	0x0000cf01	7.4259e-41
202	0xbca26223	-0.019822186
203	0xbccb239b	-0.024797251
204	0x003760f0	5.085727e-39
205	0x0006b762	6.16798e-40
206	0x800ba9fb	-1.071168e-39
207	0xbcd20db2	-0.025641296
208	0x0001f5ee	1.80058e-40
209	0x8004d266	-4.42819e-40
210	0xbce1dc0e	-0.02757075
211	0xbce2ae8b	-0.02767112
212	0xbce4b377	-0.027917607
213	0xbcd754ac	-0.026285492
214	0x800bc4a8	-1.080737e-39
215	0x0009ba37	8.93321e-40
216	0xbc960f25	-0.018317768
217	0xbd3ddbd5	-0.046352226
218	0xbcd90d3b	-0.026495567
219	0xbcdb5620	-0.026774466
220	0x000382ab	3.22381e-40
221	0x003ae7df	5.409638e-39
222	0xbce79d52	-0.028273258
223	0x357374ff	9.0694806e-07
224	0xbcc84f13	-0.024451768
225	0x000c8319	1.149055e-39
226	0x345e7356	2.071732e-07
227	0xbcf5f79f	-0.030025302
228	0x004b1bb7	6.897604e-39
229	0x800623de	-5.6388e-40
230	0x0000d907	7.7855e-41
231	0x00001f78	1.1289e-41
232	0x000111bf	9.8202e-41
233	0x80034a88	-3.02243e-40
234	0xbcd921b4	-0.026505329
235	0xbcd8ef2b	-0.026481232
236	0xbc873495	-0.016504565
237	0x8171be02	-4.4401033e-38
238	0x008305a0	1.2032468e-38
239	0x800a7499	-9.60182e-40
240	0xbcc36388	-0.023851171
241	0xbcd4c6e6	-0.025973748
242	0xbcd24eb8	-0.025672302
243	0xbcdf0600	-0.02722454
244	0xbcdf17b5	-0.027232984
245	0xbd4ba9c3	-0.049722444
246	0xbcb6211a	-0.02223258
247	0x8009335a	-8.44941e-40
248	0x000677b9	5.93961e-40
249	0xb1d55fca	-6.210006e-09
250	0x003da373	5.6606e-39
251	0x80066696	-5.87814e-40
252	0x800670ea	-5.91519e-40
253	0xbce1b646	-0.027552735
254	0xbceaf819	-0.028682755
255	0x000d0605	1.196021e-39

layers.4.bias f4 [32]
0	0xbe1a7f2a	-0.15087572
1	0xbe38d71a	-0.18050805
2	0xbe1ab719	-0.15108909
3	0x29bc54cc	8.363587e-14
4	0xbcc8c0ef	-0.02450606
5	0xbb0648bf	-0.0020490137
6	0xaa0703aa	-1.199168e-13
7	0x0004dd6f	4.46777e-40
8	0x29442379	4.355151e-14
9	0xbdb4cdc6	-0.08828311
10	0x3d164c77	0.036694016
11	0xb9c7d54e	-0.00038115162
12	0xbc255525	-0.010091101
13	0xbe3d135d	-0.18464418
14	0xbd2a7d73	-0.041623544
15	0xbdc02ec3	-0.09383919
16	0x3d538f6b	0.051650446
17	0xbb4cc517	-0.0031245404
18	0xbe1087b7	-0.14114271
19	0x3d21f29e	0.03953802
20	0xbe187aae	-0.14890549
21	0xbe1adc41	-0.15123083
22	0xbe19980d	-0.14999409
23	0x3beb7a05	0.0071861767
24	0xbcb5e256	-0.022202652
25	0xbe64068b	-0.22268121
26	0xbe1a0530	-0.15041041
27	0xbc923562	-0.01784772
28	0xbb627b64	-0.003455841
29	0x3d6d2eb9	0.057905886
30	0xbd771d39	-0.060330603
31	0xbd93df25	-0.07220296

layers.6.weight f4 [8, 32]
0	0x3d24fc06	0.04027941
1	0x3cf11724	0.02942998
2	0x8009625a	-8.61801e-40
3	0x0002cc33	2.56924e-40
4	0x3d3fb49d	0.046803106
5	0x3d0043e8	0.03131476
6	0x8009caa7	-8.99217e-40
7	0x8000a596	-5.9401e-41
8	0x00092028	8.38055e-40
9	0x3d1f6f31	0.0389244
10	0x00014a1b	1.1842e-40
11	0x3d9cdc53	0.07659211
12	0x3d89b9a1	0.06724859
13	0x0008dd01	8.13965e-40
14	0x3d9c4058	0.0762946
15	0xbd981f32	-0.07427825
16	0x3b771110	0.003769938
17	0x0002bd01	2.51473e-40
18	0x3def9531	0.11698378
19	0x3b6d88f0	0.0036244951
20	0xbb9cc1be	-0.004783838
21	0x0088b996	1.2556203e-38
22	0x8028ce63	-3.747457e-39
23	0x000cc8db	1.17408e-39
24	0x3bef11e3	0.0072958334
25	0xbd38780d	-0.045036364
26	0x0005a6d2	5.19021e-40
27	0xbdd55f53	-0.10418572
28	0xbc39d5c4	-0.01134247
29	0xbe034e50	-0.12822843
30	0xbe0aa515	-0.13539536
31	0xbda8230d	-0.082098104
32	0xbc6773a6	-0.014126694
33	0x3e43c0d1	0.19116522
34	0x3d945501	0.07242776
35	0x3d03194d	0.03200655
36	0xbd7d793b	-0.061883193
37	0x80072a14	-6.57943e-40
38	0x3d65a88d	0.056068946
39	0x3356ff46	5.0057928e-08
40	0x000021d7	1.214e-41
41	0x3e70592a	0.23471513
42	0xbc49e60e	-0.012322916
43	0xbd4ebbe5	-0.05047216
44	0xbc8c3aeb	-0.017117938
45	0x3daba87b	0.083817445
46	0x800adca5	-9.97507e-40
47	0x3d7224c6	0.0591171
48	0xbe75d653	-0.2400754
49	0x3a66f3e7	0.0008810148
50	0x3e936bb9	0.28793123
51	0xbc5c9873	-0.013464081
52	0x3dcce76d	0.100050785
53	0x3d95842f	0.07300603
54	0x3d99846d	0.07495961
55	0xb9bfcb0a	-0.00036581635
56	0x3dc269b2	0.09492816
57	0x3d48ccc6	0.049023412
58	0x3da02868	0.07820207
59	0x3d76f056	0.060287796
60	0x802dcbca	-4.205703e-39
61	0x3dda3a90	0.10655701
62	0xbcbd5622	-0.02311236
63	0x3cd9490b	0.026524087
64	0xbdf381a2	-0.1188996
65	0x3e39dc0a	0.18150344
66	0x3d946787	0.07246309
67	0x3d00a940	0.03141141
68	0xbe0b99fb	-0.13632958
69	0x3be99d6a	0.007129361
70	0x3d6571eb	0.056016844
71	0x33afed17	8.192199e-08
72	0x851d2dae	-7.3904946e-36
73	0x3e27c62d	0.16384192
74	0x3df00216	0.11719148
75	0x3dccaf3d	0.099943615
76	0xbdc02c14	-0.09383407
77	0x3daaf949	0.083483286
78	0x3d034604	0.032049194
79	0x3df62b73	0.12020006
80	0xbe14435b	-0.14478819
81	0xbd416f68	-0.047225386
82	0x3de4c3e4	0.11170176
83	0x3d836e48	0.06417519
84	0xbd8eb65d	-0.06968377
85	0x3d971a18	0.07378024
86	0x3d932811	0.071853764
87	0x3d4c4f1f	0.049880143
88	0x3c730367	0.014832354
89	0x3e24cfaa	0.16094843
90	0x3da0287b	0.07820221
91	0x3dd0a772	0.10188188
92	0xbd399b0f	-0.04531389
93	0xbdc7b8e1	-0.0975206
94	0x3e309761	0.17245246
95	0x3dd86fa2	0.10568167
96	0xbe0cf623	-0.13765769
97	0xbd96946e	-0.073525295
98	0x000bed2a	1.095269e-39
99	0x8000bb80	-6.7262e-41
100	0x3e09b69c	0.13448566
101	0x3ccfdbb7	0.025373323
102	0x8003a37c	-3.34154e-40
103	0x000c9fef	1.1594e-39
104	0x80044000	-3.90301e-40
105	0xbd949782	-0.0725546
106	0x8007d3f3	-7.18882e-40
107	0xbda007db	-0.07813998
108	0x3cbd11ae	0.02307972
109	0xb6e2665b	-6.7472406e-06
110	0xbbe0bc5e	-0.0068583926
111	0xbd967bd8	-0.0734784
112	0xbc62790a	-0.013822803
113	0xb4bae120	-3.4809e-07
114	0xbdd34774	-0.10316363
115	0x3cc258f2	0.023724053
116	0x3ad22613	0.0016033076
117	0x00082766	7.48817e-40
118	0x80061663	-5.59044e-40
119	0x3a499571	0.000768981
120	0xbd3105ba	-0.043218352
121	0x3cbe674e	0.023242619
122	0x8003c868	-3.47399e-40
123	0xbb8d055d	-0.004303618
124	0xbc7ec9fb	-0.015551086
125	0xbd185d9a	-0.03719864
126	0xbc998244	-0.018738873
127	0x3d295cdb	0.04134832
128	0xbd243e64	-0.040098563
129	0xbd3d4e86	-0.046217464
130	0xbd330f0a	-0.043715514
131	0xbca19d25	-0.019728253
132	0x8001b78f	-1.57684e-40
133	0x00006d4c	3.9208e-41
134	0x000bf035	1.09636e-39
135	0x8002617f	-2.18646e-40
136	0x802a14a2	-3.864492e-39
137	0xbd5617e4	-0.052268878
138	0x80078b56	-6.92833e-40
139	0x8006180c	-5.5964e-40
140	0x800baa7b	-1.071347e-39
141	0xbd188662	-0.037237532
142	0x00048fe9	4.18967e-40
143	0xbd1d64b5	-0.03842612
144	0x0001efcf	1.77863e-40
145	0x000af6fc	1.006956e-39
146	0xbd543bdc	-0.0518149
147	0x804b4c9e	-6.915147e-39
148	0xbd1d800a	-0.038452186
149	0xbd1c34ec	-0.038136408
150	0xbd3349b0	-0.043771446
151	0x0117f7fa	2.7912234e-38
152	0x80075f5e	-6.7706e-40
153	0xbd282164	-0.04104747
154	0xbd2b5a47	-0.041834142
155	0x0002c43a	2.54064e-40
156	0x8001ff26	-1.83366e-40
157	0x000732b9	6.61044e-40
158	0xbd33682d	-0.04380052
159	0xbd49d7f9	-0.049278233
160	0x3e03bdb9	0.12865342
161	0x3dd63dfa	0.1046104
162	0x3d90e63b	0.07075163
163	0x3d01fc37	0.03173467
164	0xbdaef548	-0.085428774
165	0x3c789158	0.015171371
166	0x3d63cde7	0.055616286
167	0x329256f1	1.7036173e-08
168	0x800adfee	-9.98686e-40
169	0x3e642555	0.22279866
170	0x0008d074	8.09463e-40
171	0xbd3d075e	-0.046149604
172	0xbd8d1afa	-0.06889911
173	0x3da0406b	0.07824787
174	0x3dac0026	0.08398466
175	0x3d6cd6c1	0.057821993
176	0xbea9526b	-0.33070692
177	0x8007382d	-6.63e-40
178	0x3d8d09f1	0.06886662
179	0xbe597935	-0.21237643
180	0x3e3094a2	0.17244199
181	0x3d91218a	0.07086475
182	0x3d9349e1	0.07191826
183	0xb9c0105e	-0.00036633288
184	0xbdd54ed5	-0.10415427
185	0x3d92830d	0.07153902
186	0x3d9a323d	0.075291134
187	0x3d850c2a	0.06496461
188	0xbcbb7bdf	-0.022886215
189	0x3bae658f	0.0053221653
190	0x3c9720cb	0.018448254
191	0x3dc13a66	0.09434967
192	0x3dc6dddd	0.09710286
193	0x3dbfe1ba	0.09369226
194	0x3dc54bef	0.09633624
195	0x0003e7e6	3.58696e-40
196	0x8005031b	-4.60292e-40
197	0x80c4fb44	-1.8089894e-38
198	0x8009f3df	-9.14004e-40
199	0x0006d965	6.29e-40
200	0x20935494	2.4958738e-19
201	0x3db79938	0.08964771
202	0x00012048	1.03416e-40
203	0x00048643	4.15506e-40
204	0x812101f4	-2.957243e-38
205	0x3dc46dce	0.09591256
206	0x800342aa	-2.99421e-40
207	0x3de19bb2	0.11016025
208	0xbee8b5c6	-0.45451182
209	0x80056318	-4.94726e-40
210	0x3dbf6234	0.09344903
211	0x0006cba8	6.24071e-40
212	0x3dc73c86	0.09728341
213	0x3dc50474	0.0961999
214	0x3dc670e4	0.09689501
215	0x3915c21c	0.00014282059
216	0xbc503553	-0.012708026
217	0x3dc5bc25	0.09655026
218	0x3dc5b22c	0.09653124
219	0x820ce29b	-1.0350608e-37
220	0x00c95798	1.8490357e-38
221	0x80000ae3	-3.905e-42
222	0x3daac7f7	0.083389215
223	0x3dc763d6	0.09735839
224	0x3e53686d	0.20645304
225	0x3d692ef8	0.05692956
226	0x3d971090	0.07376206
227	0x3d0171ee	0.031602792
228	0x3da9bace	0.08287583
229	0x3cd79a64	0.026318736
230	0x3d67fa9d	0.056635488
231	0x3459416c	2.02335e-07
232	0x9a024991	-2.6942796e-23
233	0x3e40b1ea	0.18817869
234	0xbd542fbb	-0.05180333
235	0xbe0cf5bd	-0.13765617
236	0x3dd2eb04	0.10298732
237	0xbb758936	-0.0037465817
238	0xbcabe1f5	-0.020981768
239	0xbd1481d3	-0.036256623
240	0xbdfb702f	-0.12277257
241	0xbd1922e7	-0.0373868
242	0x3e27cb1e	0.16386077
243	0xbb1b96fe	-0.0023741121
244	0x3e4e32c6	0.20136556
245	0x3d983e54	0.07433763
246	0x3d996a7e	0.07491015
247	0x3c009a49	0.007849284
248	0xbd353c25	-0.04424681
249	0x3e5f534f	0.21809123
250	0x3da1cb0d	0.07900057
251	0xbdbd8960	-0.09254718
252	0x3c94c21d	0.018158967
253	0x3d901d05	0.07036785
254	0x3e4a06bf	0.19729136
255	0x3e76369d	0.24044271

layers.6.bias f4 [8]
0	0x3d903eb1	0.070432074
1	0xbe57733d	-0.21040054
2	0x3cd6c1c8	0.026215449
3	0x3dea17db	0.11430331
4	0xae2fd550	-3.9979853e-11
5	0xbdbaf2bc	-0.09128329
6	0xbeb230d1	-0.3480287
7	0xbccf1ad0	-0.02528134

layers.8.weight f4 [4, 8]
0	0xbda735fa	-0.08164592
1	0xbb755577	-0.0037434974
2	0x3e81a632	0.2532211
3	0x3dd4df49	0.10394151
4	0x000a621c	9.5355e-40
5	0x3d174587	0.03693154
6	0x0000a5d7	5.9492e-41
7	0xbe9797a4	-0.2960788
8	0x3d8b2035	0.067932524
9	0x0088fb7d	1.2579844e-38
10	0xbea6835a	-0.32522088
11	0x3dd7af2d	0.10531459
12	0x8004c246	-4.37034e-40
13	0x3e2f2c4e	0.17106745
14	0x000c4745	1.127593e-39
15	0x3d8067dc	0.062698096
16	0x0002ebc3	2.68246e-40
17	0x3deb437f	0.11487483
18	0x3def7f6d	0.116942264
19	0x000390f5	3.27507e-40
20	0xb9011501	-0.00012310223
21	0x3dd5f6e0	0.10447478
22	0x3de67f5d	0.11254761
23	0x3e026932	0.12735441
24	0x3e483ad3	0.1955369
25	0xbd2dad29	-0.042401467
26	0x3e582b74	0.21110326
27	0xbd57d5ae	-0.052694015
28	0x80db5815	-2.0143572e-38
29	0x3c1a491e	0.009416847
30	0x000807b7	7.37452e-40
31	0xbeb8618c	-0.36011922

layers.8.bias f4 [4]
0	0xbe652e16	-0.22380862
1	0x3dd348e9	0.10316641
2	0xbc276d5c	-0.010218944
3	0x3e04de08	0.12975323

layers.10.weight f4 [1, 4]
0	0xbe3e773a	-0.18600169
1	0xbe3d567e	-0.18490025
2	0x3df2e1b8	0.11859459
3	0xbdc93cfc	-0.09826085
